<frozen importlib._bootstrap_external>:1241: FutureWarning: The cuda.cudart module is deprecated and will be removed in a future release, please switch to use the cuda.bindings.runtime module instead.
<frozen importlib._bootstrap_external>:1241: FutureWarning: The cuda.nvrtc module is deprecated and will be removed in a future release, please switch to use the cuda.bindings.nvrtc module instead.
`torch_dtype` is deprecated! Use `dtype` instead!
2026-06-04 17:53:56,047	INFO worker.py:2012 -- Started a local Ray instance.
/home/t-jialianggu/.conda/envs/sglang-dev/lib/python3.11/site-packages/ray/_private/worker.py:2051: FutureWarning: Tip: In future versions of Ray, Ray will no longer override accelerator visible devices env var if num_gpus=0 or num_gpus=None (default). To enable this behavior and turn off this error message, set RAY_ACCEL_ENV_VAR_OVERRIDE_ON_ZERO=0
  warnings.warn(
[36m(pid=252851)[0m <frozen importlib._bootstrap_external>:1241: FutureWarning: The cuda.cudart module is deprecated and will be removed in a future release, please switch to use the cuda.bindings.runtime module instead.
[36m(pid=252851)[0m <frozen importlib._bootstrap_external>:1241: FutureWarning: The cuda.nvrtc module is deprecated and will be removed in a future release, please switch to use the cuda.bindings.nvrtc module instead.
Namespace(model='/data/hf/models/Qwen3-30B-A3B-Instruct-2507', tp_size=1, ep_size=1, dtype='auto', per_channel_quant=False, seed=0, batch_size=32, tune=True, disable_shared_experts_fusion=True)
Start tuning over 1920 configurations to create E=128,N=768,device_name=NVIDIA_H200.json...
[2m[36m(pid=252851) [0m:   0%|          | 0.00/1.92k [00:00<?, ?it/s][2m[36m(pid=252851) [0m:   0%|          | 2.00/1.92k [00:01<29:18, 1.09it/s][2m[36m(pid=252851) [0m:   0%|          | 2.00/1.92k [00:01<29:18, 1.09it/s][2m[36m(pid=252851) [0m:   0%|          | 5.00/1.92k [00:02<17:25, 1.83it/s][2m[36m(pid=252851) [0m:   0%|          | 5.00/1.92k [00:02<17:25, 1.83it/s][2m[36m(pid=252851) [0m:   0%|          | 8.00/1.92k [00:04<14:41, 2.17it/s][2m[36m(pid=252851) [0m:   0%|          | 8.00/1.92k [00:04<14:41, 2.17it/s][2m[36m(pid=252851) [0m:   1%|          | 11.0/1.92k [00:05<13:30, 2.36it/s][2m[36m(pid=252851) [0m:   1%|          | 11.0/1.92k [00:05<13:30, 2.36it/s][2m[36m(pid=252851) [0m:   1%|          | 14.0/1.92k [00:06<12:53, 2.47it/s][2m[36m(pid=252851) [0m:   1%|          | 14.0/1.92k [00:06<12:53, 2.47it/s][2m[36m(pid=252851) [0m:   1%|          | 17.0/1.92k [00:07<12:31, 2.53it/s][2m[36m(pid=252851) [0m:   1%|          | 17.0/1.92k [00:07<12:31, 2.53it/s][2m[36m(pid=252851) [0m:   1%|          | 20.0/1.92k [00:08<12:58, 2.44it/s][2m[36m(pid=252851) [0m:   1%|          | 20.0/1.92k [00:08<12:58, 2.44it/s][2m[36m(pid=252851) [0m:   1%|          | 23.0/1.92k [00:10<13:16, 2.38it/s][2m[36m(pid=252851) [0m:   1%|          | 23.0/1.92k [00:10<13:16, 2.38it/s][2m[36m(pid=252851) [0m:   1%|▏         | 26.0/1.92k [00:11<13:27, 2.34it/s][2m[36m(pid=252851) [0m:   1%|▏         | 26.0/1.92k [00:11<13:27, 2.34it/s][2m[36m(pid=252851) [0m:   1%|▏         | 28.0/1.92k [00:12<14:48, 2.13it/s][2m[36m(pid=252851) [0m:   1%|▏         | 28.0/1.92k [00:12<14:48, 2.13it/s][2m[36m(pid=252851) [0m:   2%|▏         | 30.0/1.92k [00:13<15:29, 2.03it/s][2m[36m(pid=252851) [0m:   2%|▏         | 30.0/1.92k [00:13<15:29, 2.03it/s][2m[36m(pid=252851) [0m:   2%|▏         | 33.0/1.92k [00:15<15:16, 2.06it/s][2m[36m(pid=252851) [0m:   2%|▏         | 33.0/1.92k [00:15<15:16, 2.06it/s][2m[36m(pid=252851) [0m:   2%|▏         | 35.0/1.92k [00:16<15:50, 1.98it/s][2m[36m(pid=252851) [0m:   2%|▏         | 35.0/1.92k [00:16<15:50, 1.98it/s][2m[36m(pid=252851) [0m:   2%|▏         | 38.0/1.92k [00:17<15:08, 2.07it/s][2m[36m(pid=252851) [0m:   2%|▏         | 38.0/1.92k [00:17<15:08, 2.07it/s][2m[36m(pid=252851) [0m:   2%|▏         | 41.0/1.92k [00:18<14:41, 2.13it/s][2m[36m(pid=252851) [0m:   2%|▏         | 41.0/1.92k [00:18<14:41, 2.13it/s][2m[36m(pid=252851) [0m:   2%|▏         | 44.0/1.92k [00:20<14:43, 2.12it/s][2m[36m(pid=252851) [0m:   2%|▏         | 44.0/1.92k [00:20<14:43, 2.12it/s][2m[36m(pid=252851) [0m:   2%|▏         | 47.0/1.92k [00:21<14:24, 2.17it/s][2m[36m(pid=252851) [0m:   2%|▏         | 47.0/1.92k [00:21<14:24, 2.17it/s][2m[36m(pid=252851) [0m:   3%|▎         | 50.0/1.92k [00:23<14:50, 2.10it/s][2m[36m(pid=252851) [0m:   3%|▎         | 50.0/1.92k [00:23<14:50, 2.10it/s][2m[36m(pid=252851) [0m:   3%|▎         | 52.0/1.92k [00:24<15:25, 2.02it/s][2m[36m(pid=252851) [0m:   3%|▎         | 52.0/1.92k [00:24<15:25, 2.02it/s][2m[36m(pid=252851) [0m:   3%|▎         | 54.0/1.92k [00:25<15:31, 2.00it/s][2m[36m(pid=252851) [0m:   3%|▎         | 54.0/1.92k [00:25<15:31, 2.00it/s][2m[36m(pid=252851) [0m:   3%|▎         | 57.0/1.92k [00:26<14:52, 2.09it/s][2m[36m(pid=252851) [0m:   3%|▎         | 57.0/1.92k [00:26<14:52, 2.09it/s][2m[36m(pid=252851) [0m:   3%|▎         | 59.0/1.92k [00:28<18:12, 1.70it/s][2m[36m(pid=252851) [0m:   3%|▎         | 59.0/1.92k [00:28<18:12, 1.70it/s][2m[36m(pid=252851) [0m:   3%|▎         | 61.0/1.92k [00:30<20:51, 1.49it/s][2m[36m(pid=252851) [0m:   3%|▎         | 61.0/1.92k [00:30<20:51, 1.49it/s][2m[36m(pid=252851) [0m:   3%|▎         | 63.0/1.92k [00:31<20:18, 1.52it/s][2m[36m(pid=252851) [0m:   3%|▎         | 63.0/1.92k [00:31<20:18, 1.52it/s][2m[36m(pid=252851) [0m:   3%|▎         | 65.0/1.92k [00:32<19:27, 1.59it/s][2m[36m(pid=252851) [0m:   3%|▎         | 65.0/1.92k [00:32<19:27, 1.59it/s][2m[36m(pid=252851) [0m:   4%|▎         | 68.0/1.92k [00:34<18:02, 1.71it/s][2m[36m(pid=252851) [0m:   4%|▎         | 68.0/1.92k [00:34<18:02, 1.71it/s][2m[36m(pid=252851) [0m:   4%|▎         | 71.0/1.92k [00:35<16:28, 1.87it/s][2m[36m(pid=252851) [0m:   4%|▎         | 71.0/1.92k [00:35<16:28, 1.87it/s][2m[36m(pid=252851) [0m:   4%|▍         | 74.0/1.92k [00:36<15:50, 1.94it/s][2m[36m(pid=252851) [0m:   4%|▍         | 74.0/1.92k [00:36<15:50, 1.94it/s][2m[36m(pid=252851) [0m:   4%|▍         | 76.0/1.92k [00:38<16:32, 1.86it/s][2m[36m(pid=252851) [0m:   4%|▍         | 76.0/1.92k [00:38<16:32, 1.86it/s][2m[36m(pid=252851) [0m:   4%|▍         | 78.0/1.92k [00:39<16:41, 1.84it/s][2m[36m(pid=252851) [0m:   4%|▍         | 78.0/1.92k [00:39<16:41, 1.84it/s][2m[36m(pid=252851) [0m:   4%|▍         | 81.0/1.92k [00:40<15:33, 1.97it/s][2m[36m(pid=252851) [0m:   4%|▍         | 81.0/1.92k [00:40<15:33, 1.97it/s][2m[36m(pid=252851) [0m:   4%|▍         | 82.0/1.92k [00:42<19:36, 1.56it/s][2m[36m(pid=252851) [0m:   4%|▍         | 82.0/1.92k [00:42<19:36, 1.56it/s][2m[36m(pid=252851) [0m:   4%|▍         | 84.0/1.92k [00:43<22:02, 1.39it/s][2m[36m(pid=252851) [0m:   4%|▍         | 84.0/1.92k [00:43<22:02, 1.39it/s][2m[36m(pid=252851) [0m:   4%|▍         | 86.0/1.92k [00:45<22:24, 1.36it/s][2m[36m(pid=252851) [0m:   4%|▍         | 86.0/1.92k [00:45<22:24, 1.36it/s][2m[36m(pid=252851) [0m:   5%|▍         | 88.0/1.92k [00:46<21:45, 1.40it/s][2m[36m(pid=252851) [0m:   5%|▍         | 88.0/1.92k [00:46<21:45, 1.40it/s][2m[36m(pid=252851) [0m:   5%|▍         | 90.0/1.92k [00:49<26:20, 1.16it/s][2m[36m(pid=252851) [0m:   5%|▍         | 90.0/1.92k [00:49<26:20, 1.16it/s][2m[36m(pid=252851) [0m:   5%|▍         | 91.0/1.92k [00:51<31:30, 1.03s/it][2m[36m(pid=252851) [0m:   5%|▍         | 91.0/1.92k [00:51<31:30, 1.03s/it][2m[36m(pid=252851) [0m:   5%|▍         | 92.0/1.92k [00:52<36:58, 1.21s/it][2m[36m(pid=252851) [0m:   5%|▍         | 92.0/1.92k [00:52<36:58, 1.21s/it][2m[36m(pid=252851) [0m:   5%|▍         | 93.0/1.92k [00:54<41:08, 1.35s/it][2m[36m(pid=252851) [0m:   5%|▍         | 93.0/1.92k [00:54<41:08, 1.35s/it][2m[36m(pid=252851) [0m:   5%|▍         | 95.0/1.92k [00:56<35:57, 1.18s/it][2m[36m(pid=252851) [0m:   5%|▍         | 95.0/1.92k [00:56<35:57, 1.18s/it][2m[36m(pid=252851) [0m:   5%|▌         | 97.0/1.92k [00:58<33:02, 1.09s/it][2m[36m(pid=252851) [0m:   5%|▌         | 97.0/1.92k [00:58<33:02, 1.09s/it][2m[36m(pid=252851) [0m:   5%|▌         | 100/1.92k [00:59<24:02, 1.26it/s] [2m[36m(pid=252851) [0m:   5%|▌         | 100/1.92k [00:59<24:02, 1.26it/s][2m[36m(pid=252851) [0m:   5%|▌         | 103/1.92k [01:00<19:09, 1.58it/s][2m[36m(pid=252851) [0m:   5%|▌         | 103/1.92k [01:00<19:09, 1.58it/s][2m[36m(pid=252851) [0m:   6%|▌         | 106/1.92k [01:02<16:43, 1.81it/s][2m[36m(pid=252851) [0m:   6%|▌         | 106/1.92k [01:02<16:43, 1.81it/s][2m[36m(pid=252851) [0m:   6%|▌         | 109/1.92k [01:03<15:34, 1.94it/s][2m[36m(pid=252851) [0m:   6%|▌         | 109/1.92k [01:03<15:34, 1.94it/s][2m[36m(pid=252851) [0m:   6%|▌         | 112/1.92k [01:04<14:48, 2.03it/s][2m[36m(pid=252851) [0m:   6%|▌         | 112/1.92k [01:04<14:48, 2.03it/s][2m[36m(pid=252851) [0m:   6%|▌         | 115/1.92k [01:06<14:37, 2.06it/s][2m[36m(pid=252851) [0m:   6%|▌         | 115/1.92k [01:06<14:37, 2.06it/s][2m[36m(pid=252851) [0m:   6%|▌         | 117/1.92k [01:07<15:08, 1.98it/s][2m[36m(pid=252851) [0m:   6%|▌         | 117/1.92k [01:07<15:08, 1.98it/s][2m[36m(pid=252851) [0m:   6%|▌         | 119/1.92k [01:08<15:09, 1.98it/s][2m[36m(pid=252851) [0m:   6%|▌         | 119/1.92k [01:08<15:09, 1.98it/s][2m[36m(pid=252851) [0m:   6%|▋         | 121/1.92k [01:09<15:10, 1.97it/s][2m[36m(pid=252851) [0m:   6%|▋         | 121/1.92k [01:09<15:10, 1.97it/s][2m[36m(pid=252851) [0m:   6%|▋         | 123/1.92k [01:10<17:15, 1.74it/s][2m[36m(pid=252851) [0m:   6%|▋         | 123/1.92k [01:10<17:15, 1.74it/s][2m[36m(pid=252851) [0m:   7%|▋         | 125/1.92k [01:12<18:49, 1.59it/s][2m[36m(pid=252851) [0m:   7%|▋         | 125/1.92k [01:12<18:49, 1.59it/s][2m[36m(pid=252851) [0m:   7%|▋         | 127/1.92k [01:13<18:12, 1.64it/s][2m[36m(pid=252851) [0m:   7%|▋         | 127/1.92k [01:13<18:12, 1.64it/s][2m[36m(pid=252851) [0m:   7%|▋         | 129/1.92k [01:14<17:45, 1.68it/s][2m[36m(pid=252851) [0m:   7%|▋         | 129/1.92k [01:14<17:45, 1.68it/s][2m[36m(pid=252851) [0m:   7%|▋         | 131/1.92k [01:15<17:53, 1.67it/s][2m[36m(pid=252851) [0m:   7%|▋         | 131/1.92k [01:15<17:53, 1.67it/s][2m[36m(pid=252851) [0m:   7%|▋         | 134/1.92k [01:17<15:39, 1.90it/s][2m[36m(pid=252851) [0m:   7%|▋         | 134/1.92k [01:17<15:39, 1.90it/s][2m[36m(pid=252851) [0m:   7%|▋         | 137/1.92k [01:18<14:44, 2.02it/s][2m[36m(pid=252851) [0m:   7%|▋         | 137/1.92k [01:18<14:44, 2.02it/s][2m[36m(pid=252851) [0m:   7%|▋         | 139/1.92k [01:19<15:12, 1.95it/s][2m[36m(pid=252851) [0m:   7%|▋         | 139/1.92k [01:19<15:12, 1.95it/s][2m[36m(pid=252851) [0m:   7%|▋         | 141/1.92k [01:20<15:10, 1.95it/s][2m[36m(pid=252851) [0m:   7%|▋         | 141/1.92k [01:20<15:10, 1.95it/s][2m[36m(pid=252851) [0m:   8%|▊         | 144/1.92k [01:21<14:46, 2.00it/s][2m[36m(pid=252851) [0m:   8%|▊         | 144/1.92k [01:21<14:46, 2.00it/s][2m[36m(pid=252851) [0m:   8%|▊         | 146/1.92k [01:23<15:36, 1.89it/s][2m[36m(pid=252851) [0m:   8%|▊         | 146/1.92k [01:23<15:36, 1.89it/s][2m[36m(pid=252851) [0m:   8%|▊         | 148/1.92k [01:24<17:03, 1.73it/s][2m[36m(pid=252851) [0m:   8%|▊         | 148/1.92k [01:24<17:03, 1.73it/s][2m[36m(pid=252851) [0m:   8%|▊         | 150/1.92k [01:25<16:53, 1.75it/s][2m[36m(pid=252851) [0m:   8%|▊         | 150/1.92k [01:25<16:53, 1.75it/s][2m[36m(pid=252851) [0m:   8%|▊         | 152/1.92k [01:26<16:46, 1.76it/s][2m[36m(pid=252851) [0m:   8%|▊         | 152/1.92k [01:26<16:46, 1.76it/s][2m[36m(pid=252851) [0m:   8%|▊         | 154/1.92k [01:28<18:50, 1.56it/s][2m[36m(pid=252851) [0m:   8%|▊         | 154/1.92k [01:28<18:50, 1.56it/s][2m[36m(pid=252851) [0m:   8%|▊         | 155/1.92k [01:29<21:14, 1.38it/s][2m[36m(pid=252851) [0m:   8%|▊         | 155/1.92k [01:29<21:14, 1.38it/s][2m[36m(pid=252851) [0m:   8%|▊         | 156/1.92k [01:30<24:06, 1.22it/s][2m[36m(pid=252851) [0m:   8%|▊         | 156/1.92k [01:30<24:06, 1.22it/s][2m[36m(pid=252851) [0m:   8%|▊         | 157/1.92k [01:31<26:02, 1.13it/s][2m[36m(pid=252851) [0m:   8%|▊         | 157/1.92k [01:31<26:02, 1.13it/s][2m[36m(pid=252851) [0m:   8%|▊         | 159/1.92k [01:33<24:03, 1.22it/s][2m[36m(pid=252851) [0m:   8%|▊         | 159/1.92k [01:33<24:03, 1.22it/s][2m[36m(pid=252851) [0m:   8%|▊         | 161/1.92k [01:34<22:55, 1.28it/s][2m[36m(pid=252851) [0m:   8%|▊         | 161/1.92k [01:34<22:55, 1.28it/s][2m[36m(pid=252851) [0m:   8%|▊         | 163/1.92k [01:35<20:12, 1.45it/s][2m[36m(pid=252851) [0m:   8%|▊         | 163/1.92k [01:35<20:12, 1.45it/s][2m[36m(pid=252851) [0m:   9%|▊         | 165/1.92k [01:36<18:57, 1.54it/s][2m[36m(pid=252851) [0m:   9%|▊         | 165/1.92k [01:36<18:57, 1.54it/s][2m[36m(pid=252851) [0m:   9%|▉         | 168/1.92k [01:38<16:26, 1.78it/s][2m[36m(pid=252851) [0m:   9%|▉         | 168/1.92k [01:38<16:26, 1.78it/s][2m[36m(pid=252851) [0m:   9%|▉         | 170/1.92k [01:39<16:24, 1.78it/s][2m[36m(pid=252851) [0m:   9%|▉         | 170/1.92k [01:39<16:24, 1.78it/s][2m[36m(pid=252851) [0m:   9%|▉         | 172/1.92k [01:40<18:04, 1.61it/s][2m[36m(pid=252851) [0m:   9%|▉         | 172/1.92k [01:40<18:04, 1.61it/s][2m[36m(pid=252851) [0m:   9%|▉         | 174/1.92k [01:42<18:24, 1.58it/s][2m[36m(pid=252851) [0m:   9%|▉         | 174/1.92k [01:42<18:24, 1.58it/s][2m[36m(pid=252851) [0m:   9%|▉         | 176/1.92k [01:43<17:20, 1.68it/s][2m[36m(pid=252851) [0m:   9%|▉         | 176/1.92k [01:43<17:20, 1.68it/s][2m[36m(pid=252851) [0m:   9%|▉         | 178/1.92k [01:45<20:56, 1.39it/s][2m[36m(pid=252851) [0m:   9%|▉         | 178/1.92k [01:45<20:56, 1.39it/s][2m[36m(pid=252851) [0m:   9%|▉         | 179/1.92k [01:46<22:56, 1.26it/s][2m[36m(pid=252851) [0m:   9%|▉         | 179/1.92k [01:46<22:56, 1.26it/s][2m[36m(pid=252851) [0m:   9%|▉         | 180/1.92k [01:47<24:51, 1.17it/s][2m[36m(pid=252851) [0m:   9%|▉         | 180/1.92k [01:47<24:51, 1.17it/s][2m[36m(pid=252851) [0m:   9%|▉         | 181/1.92k [01:48<26:31, 1.09it/s][2m[36m(pid=252851) [0m:   9%|▉         | 181/1.92k [01:48<26:31, 1.09it/s][2m[36m(pid=252851) [0m:  10%|▉         | 183/1.92k [01:50<24:13, 1.19it/s][2m[36m(pid=252851) [0m:  10%|▉         | 183/1.92k [01:50<24:13, 1.19it/s][2m[36m(pid=252851) [0m:  10%|▉         | 185/1.92k [01:51<22:23, 1.29it/s][2m[36m(pid=252851) [0m:  10%|▉         | 185/1.92k [01:51<22:23, 1.29it/s][2m[36m(pid=252851) [0m:  10%|▉         | 186/1.92k [01:53<30:59, 1.07s/it][2m[36m(pid=252851) [0m:  10%|▉         | 186/1.92k [01:53<30:59, 1.07s/it][2m[36m(pid=252851) [0m:  10%|▉         | 187/1.92k [01:55<37:53, 1.31s/it][2m[36m(pid=252851) [0m:  10%|▉         | 187/1.92k [01:55<37:53, 1.31s/it][2m[36m(pid=252851) [0m:  10%|▉         | 188/1.92k [01:57<44:23, 1.54s/it][2m[36m(pid=252851) [0m:  10%|▉         | 188/1.92k [01:57<44:23, 1.54s/it][2m[36m(pid=252851) [0m:  10%|▉         | 189/1.92k [02:00<49:34, 1.72s/it][2m[36m(pid=252851) [0m:  10%|▉         | 189/1.92k [02:00<49:34, 1.72s/it][2m[36m(pid=252851) [0m:  10%|▉         | 190/1.92k [02:01<44:54, 1.56s/it][2m[36m(pid=252851) [0m:  10%|▉         | 190/1.92k [02:01<44:54, 1.56s/it][2m[36m(pid=252851) [0m:  10%|▉         | 191/1.92k [02:02<40:34, 1.41s/it][2m[36m(pid=252851) [0m:  10%|▉         | 191/1.92k [02:02<40:34, 1.41s/it][2m[36m(pid=252851) [0m:  10%|█         | 192/1.92k [02:03<38:11, 1.33s/it][2m[36m(pid=252851) [0m:  10%|█         | 192/1.92k [02:03<38:11, 1.33s/it][2m[36m(pid=252851) [0m:  10%|█         | 193/1.92k [02:04<35:37, 1.24s/it][2m[36m(pid=252851) [0m:  10%|█         | 193/1.92k [02:04<35:37, 1.24s/it][2m[36m(pid=252851) [0m:  10%|█         | 196/1.92k [02:05<23:26, 1.23it/s][2m[36m(pid=252851) [0m:  10%|█         | 196/1.92k [02:05<23:26, 1.23it/s][2m[36m(pid=252851) [0m:  10%|█         | 199/1.92k [02:07<18:14, 1.57it/s][2m[36m(pid=252851) [0m:  10%|█         | 199/1.92k [02:07<18:14, 1.57it/s][2m[36m(pid=252851) [0m:  11%|█         | 202/1.92k [02:08<16:03, 1.78it/s][2m[36m(pid=252851) [0m:  11%|█         | 202/1.92k [02:08<16:03, 1.78it/s][2m[36m(pid=252851) [0m:  11%|█         | 205/1.92k [02:09<15:09, 1.89it/s][2m[36m(pid=252851) [0m:  11%|█         | 205/1.92k [02:09<15:09, 1.89it/s][2m[36m(pid=252851) [0m:  11%|█         | 208/1.92k [02:11<13:57, 2.05it/s][2m[36m(pid=252851) [0m:  11%|█         | 208/1.92k [02:11<13:57, 2.05it/s][2m[36m(pid=252851) [0m:  11%|█         | 210/1.92k [02:12<14:26, 1.97it/s][2m[36m(pid=252851) [0m:  11%|█         | 210/1.92k [02:12<14:26, 1.97it/s][2m[36m(pid=252851) [0m:  11%|█         | 212/1.92k [02:13<15:33, 1.83it/s][2m[36m(pid=252851) [0m:  11%|█         | 212/1.92k [02:13<15:33, 1.83it/s][2m[36m(pid=252851) [0m:  11%|█         | 214/1.92k [02:14<15:38, 1.82it/s][2m[36m(pid=252851) [0m:  11%|█         | 214/1.92k [02:14<15:38, 1.82it/s][2m[36m(pid=252851) [0m:  11%|█▏        | 217/1.92k [02:16<15:11, 1.87it/s][2m[36m(pid=252851) [0m:  11%|█▏        | 217/1.92k [02:16<15:11, 1.87it/s][2m[36m(pid=252851) [0m:  11%|█▏        | 218/1.92k [02:17<17:13, 1.65it/s][2m[36m(pid=252851) [0m:  11%|█▏        | 218/1.92k [02:17<17:13, 1.65it/s][2m[36m(pid=252851) [0m:  11%|█▏        | 219/1.92k [02:18<19:45, 1.44it/s][2m[36m(pid=252851) [0m:  11%|█▏        | 219/1.92k [02:18<19:45, 1.44it/s][2m[36m(pid=252851) [0m:  11%|█▏        | 220/1.92k [02:19<22:08, 1.28it/s][2m[36m(pid=252851) [0m:  11%|█▏        | 220/1.92k [02:19<22:08, 1.28it/s][2m[36m(pid=252851) [0m:  12%|█▏        | 221/1.92k [02:20<24:15, 1.17it/s][2m[36m(pid=252851) [0m:  12%|█▏        | 221/1.92k [02:20<24:15, 1.17it/s][2m[36m(pid=252851) [0m:  12%|█▏        | 223/1.92k [02:21<22:05, 1.28it/s][2m[36m(pid=252851) [0m:  12%|█▏        | 223/1.92k [02:21<22:05, 1.28it/s][2m[36m(pid=252851) [0m:  12%|█▏        | 225/1.92k [02:23<20:51, 1.35it/s][2m[36m(pid=252851) [0m:  12%|█▏        | 225/1.92k [02:23<20:51, 1.35it/s][2m[36m(pid=252851) [0m:  12%|█▏        | 227/1.92k [02:24<20:35, 1.37it/s][2m[36m(pid=252851) [0m:  12%|█▏        | 227/1.92k [02:24<20:35, 1.37it/s][2m[36m(pid=252851) [0m:  12%|█▏        | 229/1.92k [02:25<18:32, 1.52it/s][2m[36m(pid=252851) [0m:  12%|█▏        | 229/1.92k [02:25<18:32, 1.52it/s][2m[36m(pid=252851) [0m:  12%|█▏        | 232/1.92k [02:26<16:00, 1.76it/s][2m[36m(pid=252851) [0m:  12%|█▏        | 232/1.92k [02:26<16:00, 1.76it/s][2m[36m(pid=252851) [0m:  12%|█▏        | 234/1.92k [02:28<15:31, 1.81it/s][2m[36m(pid=252851) [0m:  12%|█▏        | 234/1.92k [02:28<15:31, 1.81it/s][2m[36m(pid=252851) [0m:  12%|█▏        | 236/1.92k [02:29<15:58, 1.76it/s][2m[36m(pid=252851) [0m:  12%|█▏        | 236/1.92k [02:29<15:58, 1.76it/s][2m[36m(pid=252851) [0m:  12%|█▏        | 238/1.92k [02:30<15:28, 1.81it/s][2m[36m(pid=252851) [0m:  12%|█▏        | 238/1.92k [02:30<15:28, 1.81it/s][2m[36m(pid=252851) [0m:  13%|█▎        | 241/1.92k [02:31<14:37, 1.91it/s][2m[36m(pid=252851) [0m:  13%|█▎        | 241/1.92k [02:31<14:37, 1.91it/s][2m[36m(pid=252851) [0m:  13%|█▎        | 243/1.92k [02:33<16:47, 1.66it/s][2m[36m(pid=252851) [0m:  13%|█▎        | 243/1.92k [02:33<16:47, 1.66it/s][2m[36m(pid=252851) [0m:  13%|█▎        | 245/1.92k [02:34<18:25, 1.52it/s][2m[36m(pid=252851) [0m:  13%|█▎        | 245/1.92k [02:34<18:25, 1.52it/s][2m[36m(pid=252851) [0m:  13%|█▎        | 247/1.92k [02:36<17:36, 1.58it/s][2m[36m(pid=252851) [0m:  13%|█▎        | 247/1.92k [02:36<17:36, 1.58it/s][2m[36m(pid=252851) [0m:  13%|█▎        | 249/1.92k [02:37<17:01, 1.64it/s][2m[36m(pid=252851) [0m:  13%|█▎        | 249/1.92k [02:37<17:01, 1.64it/s][2m[36m(pid=252851) [0m:  13%|█▎        | 250/1.92k [02:38<21:22, 1.30it/s][2m[36m(pid=252851) [0m:  13%|█▎        | 250/1.92k [02:38<21:22, 1.30it/s][2m[36m(pid=252851) [0m:  13%|█▎        | 251/1.92k [02:40<25:29, 1.09it/s][2m[36m(pid=252851) [0m:  13%|█▎        | 251/1.92k [02:40<25:29, 1.09it/s][2m[36m(pid=252851) [0m:  13%|█▎        | 252/1.92k [02:41<29:49, 1.07s/it][2m[36m(pid=252851) [0m:  13%|█▎        | 252/1.92k [02:41<29:49, 1.07s/it][2m[36m(pid=252851) [0m:  13%|█▎        | 253/1.92k [02:43<32:48, 1.18s/it][2m[36m(pid=252851) [0m:  13%|█▎        | 253/1.92k [02:43<32:48, 1.18s/it][2m[36m(pid=252851) [0m:  13%|█▎        | 255/1.92k [02:45<28:39, 1.03s/it][2m[36m(pid=252851) [0m:  13%|█▎        | 255/1.92k [02:45<28:39, 1.03s/it][2m[36m(pid=252851) [0m:  13%|█▎        | 257/1.92k [02:46<26:54, 1.03it/s][2m[36m(pid=252851) [0m:  13%|█▎        | 257/1.92k [02:46<26:54, 1.03it/s][2m[36m(pid=252851) [0m:  13%|█▎        | 259/1.92k [02:48<23:56, 1.16it/s][2m[36m(pid=252851) [0m:  13%|█▎        | 259/1.92k [02:48<23:56, 1.16it/s][2m[36m(pid=252851) [0m:  14%|█▎        | 261/1.92k [02:49<22:31, 1.23it/s][2m[36m(pid=252851) [0m:  14%|█▎        | 261/1.92k [02:49<22:31, 1.23it/s][2m[36m(pid=252851) [0m:  14%|█▎        | 263/1.92k [02:50<20:15, 1.36it/s][2m[36m(pid=252851) [0m:  14%|█▎        | 263/1.92k [02:50<20:15, 1.36it/s][2m[36m(pid=252851) [0m:  14%|█▍        | 265/1.92k [02:51<18:44, 1.47it/s][2m[36m(pid=252851) [0m:  14%|█▍        | 265/1.92k [02:51<18:44, 1.47it/s][2m[36m(pid=252851) [0m:  14%|█▍        | 267/1.92k [02:53<19:52, 1.39it/s][2m[36m(pid=252851) [0m:  14%|█▍        | 267/1.92k [02:53<19:52, 1.39it/s][2m[36m(pid=252851) [0m:  14%|█▍        | 269/1.92k [02:55<21:03, 1.31it/s][2m[36m(pid=252851) [0m:  14%|█▍        | 269/1.92k [02:55<21:03, 1.31it/s][2m[36m(pid=252851) [0m:  14%|█▍        | 271/1.92k [02:56<19:19, 1.42it/s][2m[36m(pid=252851) [0m:  14%|█▍        | 271/1.92k [02:56<19:19, 1.42it/s][2m[36m(pid=252851) [0m:  14%|█▍        | 273/1.92k [02:57<18:32, 1.48it/s][2m[36m(pid=252851) [0m:  14%|█▍        | 273/1.92k [02:57<18:32, 1.48it/s][2m[36m(pid=252851) [0m:  14%|█▍        | 274/1.92k [02:58<22:11, 1.24it/s][2m[36m(pid=252851) [0m:  14%|█▍        | 274/1.92k [02:58<22:11, 1.24it/s][2m[36m(pid=252851) [0m:  14%|█▍        | 275/1.92k [03:00<25:02, 1.09it/s][2m[36m(pid=252851) [0m:  14%|█▍        | 275/1.92k [03:00<25:02, 1.09it/s][2m[36m(pid=252851) [0m:  14%|█▍        | 276/1.92k [03:01<27:33, 1.01s/it][2m[36m(pid=252851) [0m:  14%|█▍        | 276/1.92k [03:01<27:33, 1.01s/it][2m[36m(pid=252851) [0m:  14%|█▍        | 277/1.92k [03:03<31:42, 1.16s/it][2m[36m(pid=252851) [0m:  14%|█▍        | 277/1.92k [03:03<31:42, 1.16s/it][2m[36m(pid=252851) [0m:  15%|█▍        | 279/1.92k [03:04<27:49, 1.02s/it][2m[36m(pid=252851) [0m:  15%|█▍        | 279/1.92k [03:04<27:49, 1.02s/it][2m[36m(pid=252851) [0m:  15%|█▍        | 281/1.92k [03:06<25:44, 1.06it/s][2m[36m(pid=252851) [0m:  15%|█▍        | 281/1.92k [03:06<25:44, 1.06it/s][2m[36m(pid=252851) [0m:  15%|█▍        | 282/1.92k [03:07<28:29, 1.04s/it][2m[36m(pid=252851) [0m:  15%|█▍        | 282/1.92k [03:07<28:29, 1.04s/it][2m[36m(pid=252851) [0m:  15%|█▍        | 283/1.92k [03:09<30:52, 1.13s/it][2m[36m(pid=252851) [0m:  15%|█▍        | 283/1.92k [03:09<30:52, 1.13s/it][2m[36m(pid=252851) [0m:  15%|█▍        | 284/1.92k [03:10<32:49, 1.20s/it][2m[36m(pid=252851) [0m:  15%|█▍        | 284/1.92k [03:10<32:49, 1.20s/it][2m[36m(pid=252851) [0m:  15%|█▍        | 285/1.92k [03:12<34:24, 1.26s/it][2m[36m(pid=252851) [0m:  15%|█▍        | 285/1.92k [03:12<34:24, 1.26s/it][2m[36m(pid=252851) [0m:  15%|█▍        | 287/1.92k [03:13<26:47, 1.02it/s][2m[36m(pid=252851) [0m:  15%|█▍        | 287/1.92k [03:13<26:47, 1.02it/s][2m[36m(pid=252851) [0m:  15%|█▌        | 289/1.92k [03:14<22:55, 1.19it/s][2m[36m(pid=252851) [0m:  15%|█▌        | 289/1.92k [03:14<22:55, 1.19it/s][2m[36m(pid=252851) [0m:  15%|█▌        | 291/1.92k [03:15<20:11, 1.34it/s][2m[36m(pid=252851) [0m:  15%|█▌        | 291/1.92k [03:15<20:11, 1.34it/s][2m[36m(pid=252851) [0m:  15%|█▌        | 293/1.92k [03:16<18:59, 1.43it/s][2m[36m(pid=252851) [0m:  15%|█▌        | 293/1.92k [03:16<18:59, 1.43it/s][2m[36m(pid=252851) [0m:  15%|█▌        | 296/1.92k [03:18<16:01, 1.69it/s][2m[36m(pid=252851) [0m:  15%|█▌        | 296/1.92k [03:18<16:01, 1.69it/s][2m[36m(pid=252851) [0m:  16%|█▌        | 298/1.92k [03:19<15:45, 1.71it/s][2m[36m(pid=252851) [0m:  16%|█▌        | 298/1.92k [03:19<15:45, 1.71it/s][2m[36m(pid=252851) [0m:  16%|█▌        | 300/1.92k [03:20<16:45, 1.61it/s][2m[36m(pid=252851) [0m:  16%|█▌        | 300/1.92k [03:20<16:45, 1.61it/s][2m[36m(pid=252851) [0m:  16%|█▌        | 302/1.92k [03:21<16:16, 1.66it/s][2m[36m(pid=252851) [0m:  16%|█▌        | 302/1.92k [03:21<16:16, 1.66it/s][2m[36m(pid=252851) [0m:  16%|█▌        | 305/1.92k [03:23<14:54, 1.80it/s][2m[36m(pid=252851) [0m:  16%|█▌        | 305/1.92k [03:23<14:54, 1.80it/s][2m[36m(pid=252851) [0m:  16%|█▌        | 306/1.92k [03:24<16:50, 1.60it/s][2m[36m(pid=252851) [0m:  16%|█▌        | 306/1.92k [03:24<16:50, 1.60it/s][2m[36m(pid=252851) [0m:  16%|█▌        | 307/1.92k [03:25<18:44, 1.43it/s][2m[36m(pid=252851) [0m:  16%|█▌        | 307/1.92k [03:25<18:44, 1.43it/s][2m[36m(pid=252851) [0m:  16%|█▌        | 308/1.92k [03:26<20:30, 1.31it/s][2m[36m(pid=252851) [0m:  16%|█▌        | 308/1.92k [03:26<20:30, 1.31it/s][2m[36m(pid=252851) [0m:  16%|█▌        | 309/1.92k [03:27<22:04, 1.22it/s][2m[36m(pid=252851) [0m:  16%|█▌        | 309/1.92k [03:27<22:04, 1.22it/s][2m[36m(pid=252851) [0m:  16%|█▌        | 311/1.92k [03:28<19:49, 1.35it/s][2m[36m(pid=252851) [0m:  16%|█▌        | 311/1.92k [03:28<19:49, 1.35it/s][2m[36m(pid=252851) [0m:  16%|█▋        | 313/1.92k [03:29<19:03, 1.41it/s][2m[36m(pid=252851) [0m:  16%|█▋        | 313/1.92k [03:29<19:03, 1.41it/s][2m[36m(pid=252851) [0m:  16%|█▋        | 314/1.92k [03:32<27:24, 1.02s/it][2m[36m(pid=252851) [0m:  16%|█▋        | 314/1.92k [03:32<27:24, 1.02s/it][2m[36m(pid=252851) [0m:  16%|█▋        | 315/1.92k [03:34<35:21, 1.32s/it][2m[36m(pid=252851) [0m:  16%|█▋        | 315/1.92k [03:34<35:21, 1.32s/it][2m[36m(pid=252851) [0m:  16%|█▋        | 316/1.92k [03:36<41:59, 1.57s/it][2m[36m(pid=252851) [0m:  16%|█▋        | 316/1.92k [03:36<41:59, 1.57s/it][2m[36m(pid=252851) [0m:  17%|█▋        | 317/1.92k [03:39<47:17, 1.77s/it][2m[36m(pid=252851) [0m:  17%|█▋        | 317/1.92k [03:39<47:17, 1.77s/it][2m[36m(pid=252851) [0m:  17%|█▋        | 318/1.92k [03:40<41:50, 1.57s/it][2m[36m(pid=252851) [0m:  17%|█▋        | 318/1.92k [03:40<41:50, 1.57s/it][2m[36m(pid=252851) [0m:  17%|█▋        | 319/1.92k [03:41<37:44, 1.41s/it][2m[36m(pid=252851) [0m:  17%|█▋        | 319/1.92k [03:41<37:44, 1.41s/it][2m[36m(pid=252851) [0m:  17%|█▋        | 320/1.92k [03:42<34:44, 1.30s/it][2m[36m(pid=252851) [0m:  17%|█▋        | 320/1.92k [03:42<34:44, 1.30s/it][2m[36m(pid=252851) [0m:  17%|█▋        | 321/1.92k [03:43<32:31, 1.22s/it][2m[36m(pid=252851) [0m:  17%|█▋        | 321/1.92k [03:43<32:31, 1.22s/it][2m[36m(pid=252851) [0m:  17%|█▋        | 323/1.92k [03:44<26:22, 1.01it/s][2m[36m(pid=252851) [0m:  17%|█▋        | 323/1.92k [03:44<26:22, 1.01it/s][2m[36m(pid=252851) [0m:  17%|█▋        | 325/1.92k [03:46<23:25, 1.13it/s][2m[36m(pid=252851) [0m:  17%|█▋        | 325/1.92k [03:46<23:25, 1.13it/s][2m[36m(pid=252851) [0m:  17%|█▋        | 327/1.92k [03:47<20:20, 1.30it/s][2m[36m(pid=252851) [0m:  17%|█▋        | 327/1.92k [03:47<20:20, 1.30it/s][2m[36m(pid=252851) [0m:  17%|█▋        | 329/1.92k [03:48<18:28, 1.44it/s][2m[36m(pid=252851) [0m:  17%|█▋        | 329/1.92k [03:48<18:28, 1.44it/s][2m[36m(pid=252851) [0m:  17%|█▋        | 331/1.92k [03:50<21:39, 1.22it/s][2m[36m(pid=252851) [0m:  17%|█▋        | 331/1.92k [03:50<21:39, 1.22it/s][2m[36m(pid=252851) [0m:  17%|█▋        | 333/1.92k [03:52<22:02, 1.20it/s][2m[36m(pid=252851) [0m:  17%|█▋        | 333/1.92k [03:52<22:02, 1.20it/s][2m[36m(pid=252851) [0m:  17%|█▋        | 335/1.92k [03:53<20:10, 1.31it/s][2m[36m(pid=252851) [0m:  17%|█▋        | 335/1.92k [03:53<20:10, 1.31it/s][2m[36m(pid=252851) [0m:  18%|█▊        | 337/1.92k [03:54<18:54, 1.40it/s][2m[36m(pid=252851) [0m:  18%|█▊        | 337/1.92k [03:54<18:54, 1.40it/s][2m[36m(pid=252851) [0m:  18%|█▊        | 338/1.92k [03:56<21:47, 1.21it/s][2m[36m(pid=252851) [0m:  18%|█▊        | 338/1.92k [03:56<21:47, 1.21it/s][2m[36m(pid=252851) [0m:  18%|█▊        | 339/1.92k [03:57<24:28, 1.08it/s][2m[36m(pid=252851) [0m:  18%|█▊        | 339/1.92k [03:57<24:28, 1.08it/s][2m[36m(pid=252851) [0m:  18%|█▊        | 340/1.92k [03:58<26:48, 1.02s/it][2m[36m(pid=252851) [0m:  18%|█▊        | 340/1.92k [03:58<26:48, 1.02s/it][2m[36m(pid=252851) [0m:  18%|█▊        | 341/1.92k [04:00<28:45, 1.09s/it][2m[36m(pid=252851) [0m:  18%|█▊        | 341/1.92k [04:00<28:45, 1.09s/it][2m[36m(pid=252851) [0m:  18%|█▊        | 343/1.92k [04:01<25:09, 1.04it/s][2m[36m(pid=252851) [0m:  18%|█▊        | 343/1.92k [04:01<25:09, 1.04it/s][2m[36m(pid=252851) [0m:  18%|█▊        | 345/1.92k [04:03<23:15, 1.13it/s][2m[36m(pid=252851) [0m:  18%|█▊        | 345/1.92k [04:03<23:15, 1.13it/s][2m[36m(pid=252851) [0m:  18%|█▊        | 346/1.92k [04:06<36:14, 1.38s/it][2m[36m(pid=252851) [0m:  18%|█▊        | 346/1.92k [04:06<36:14, 1.38s/it][2m[36m(pid=252851) [0m:  18%|█▊        | 347/1.92k [04:09<46:54, 1.79s/it][2m[36m(pid=252851) [0m:  18%|█▊        | 347/1.92k [04:09<46:54, 1.79s/it][2m[36m(pid=252851) [0m:  18%|█▊        | 348/1.92k [04:12<55:43, 2.13s/it][2m[36m(pid=252851) [0m:  18%|█▊        | 348/1.92k [04:12<55:43, 2.13s/it][2m[36m(pid=252851) [0m:  18%|█▊        | 349/1.92k [04:15<1:02:42, 2.40s/it][2m[36m(pid=252851) [0m:  18%|█▊        | 349/1.92k [04:15<1:02:42, 2.40s/it][2m[36m(pid=252851) [0m:  18%|█▊        | 350/1.92k [04:17<55:47, 2.13s/it]  [2m[36m(pid=252851) [0m:  18%|█▊        | 350/1.92k [04:17<55:47, 2.13s/it][2m[36m(pid=252851) [0m:  18%|█▊        | 351/1.92k [04:18<49:50, 1.91s/it][2m[36m(pid=252851) [0m:  18%|█▊        | 351/1.92k [04:18<49:50, 1.91s/it][2m[36m(pid=252851) [0m:  18%|█▊        | 352/1.92k [04:19<45:28, 1.74s/it][2m[36m(pid=252851) [0m:  18%|█▊        | 352/1.92k [04:19<45:28, 1.74s/it][2m[36m(pid=252851) [0m:  18%|█▊        | 353/1.92k [04:21<43:03, 1.65s/it][2m[36m(pid=252851) [0m:  18%|█▊        | 353/1.92k [04:21<43:03, 1.65s/it][2m[36m(pid=252851) [0m:  18%|█▊        | 354/1.92k [04:22<38:13, 1.46s/it][2m[36m(pid=252851) [0m:  18%|█▊        | 354/1.92k [04:22<38:13, 1.46s/it][2m[36m(pid=252851) [0m:  18%|█▊        | 355/1.92k [04:23<35:33, 1.36s/it][2m[36m(pid=252851) [0m:  18%|█▊        | 355/1.92k [04:23<35:33, 1.36s/it][2m[36m(pid=252851) [0m:  19%|█▊        | 356/1.92k [04:24<33:40, 1.29s/it][2m[36m(pid=252851) [0m:  19%|█▊        | 356/1.92k [04:24<33:40, 1.29s/it][2m[36m(pid=252851) [0m:  19%|█▊        | 357/1.92k [04:25<31:32, 1.21s/it][2m[36m(pid=252851) [0m:  19%|█▊        | 357/1.92k [04:25<31:32, 1.21s/it][2m[36m(pid=252851) [0m:  19%|█▊        | 359/1.92k [04:26<25:33, 1.02it/s][2m[36m(pid=252851) [0m:  19%|█▊        | 359/1.92k [04:26<25:33, 1.02it/s][2m[36m(pid=252851) [0m:  19%|█▉        | 361/1.92k [04:28<22:44, 1.14it/s][2m[36m(pid=252851) [0m:  19%|█▉        | 361/1.92k [04:28<22:44, 1.14it/s][2m[36m(pid=252851) [0m:  19%|█▉        | 362/1.92k [04:29<25:17, 1.03it/s][2m[36m(pid=252851) [0m:  19%|█▉        | 362/1.92k [04:29<25:17, 1.03it/s][2m[36m(pid=252851) [0m:  19%|█▉        | 363/1.92k [04:31<27:26, 1.06s/it][2m[36m(pid=252851) [0m:  19%|█▉        | 363/1.92k [04:31<27:26, 1.06s/it][2m[36m(pid=252851) [0m:  19%|█▉        | 364/1.92k [04:32<29:12, 1.13s/it][2m[36m(pid=252851) [0m:  19%|█▉        | 364/1.92k [04:32<29:12, 1.13s/it][2m[36m(pid=252851) [0m:  19%|█▉        | 365/1.92k [04:33<31:15, 1.21s/it][2m[36m(pid=252851) [0m:  19%|█▉        | 365/1.92k [04:33<31:15, 1.21s/it][2m[36m(pid=252851) [0m:  19%|█▉        | 367/1.92k [04:35<26:49, 1.04s/it][2m[36m(pid=252851) [0m:  19%|█▉        | 367/1.92k [04:35<26:49, 1.04s/it][2m[36m(pid=252851) [0m:  19%|█▉        | 369/1.92k [04:36<24:06, 1.07it/s][2m[36m(pid=252851) [0m:  19%|█▉        | 369/1.92k [04:36<24:06, 1.07it/s][2m[36m(pid=252851) [0m:  19%|█▉        | 370/1.92k [04:37<24:34, 1.05it/s][2m[36m(pid=252851) [0m:  19%|█▉        | 370/1.92k [04:37<24:34, 1.05it/s][2m[36m(pid=252851) [0m:  19%|█▉        | 371/1.92k [04:39<24:57, 1.03it/s][2m[36m(pid=252851) [0m:  19%|█▉        | 371/1.92k [04:39<24:57, 1.03it/s][2m[36m(pid=252851) [0m:  19%|█▉        | 372/1.92k [04:40<25:16, 1.02it/s][2m[36m(pid=252851) [0m:  19%|█▉        | 372/1.92k [04:40<25:16, 1.02it/s][2m[36m(pid=252851) [0m:  19%|█▉        | 373/1.92k [04:41<25:31, 1.01it/s][2m[36m(pid=252851) [0m:  19%|█▉        | 373/1.92k [04:41<25:31, 1.01it/s][2m[36m(pid=252851) [0m:  20%|█▉        | 375/1.92k [04:42<20:44, 1.24it/s][2m[36m(pid=252851) [0m:  20%|█▉        | 375/1.92k [04:42<20:44, 1.24it/s][2m[36m(pid=252851) [0m:  20%|█▉        | 377/1.92k [04:43<17:49, 1.44it/s][2m[36m(pid=252851) [0m:  20%|█▉        | 377/1.92k [04:43<17:49, 1.44it/s][2m[36m(pid=252851) [0m:  20%|█▉        | 378/1.92k [04:45<27:58, 1.09s/it][2m[36m(pid=252851) [0m:  20%|█▉        | 378/1.92k [04:45<27:58, 1.09s/it][2m[36m(pid=252851) [0m:  20%|█▉        | 379/1.92k [04:48<36:42, 1.43s/it][2m[36m(pid=252851) [0m:  20%|█▉        | 379/1.92k [04:48<36:42, 1.43s/it][2m[36m(pid=252851) [0m:  20%|█▉        | 380/1.92k [04:50<43:51, 1.71s/it][2m[36m(pid=252851) [0m:  20%|█▉        | 380/1.92k [04:50<43:51, 1.71s/it][2m[36m(pid=252851) [0m:  20%|█▉        | 381/1.92k [04:53<48:47, 1.90s/it][2m[36m(pid=252851) [0m:  20%|█▉        | 381/1.92k [04:53<48:47, 1.90s/it][2m[36m(pid=252851) [0m:  20%|█▉        | 382/1.92k [04:54<42:34, 1.66s/it][2m[36m(pid=252851) [0m:  20%|█▉        | 382/1.92k [04:54<42:34, 1.66s/it][2m[36m(pid=252851) [0m:  20%|█▉        | 383/1.92k [04:55<37:55, 1.48s/it][2m[36m(pid=252851) [0m:  20%|█▉        | 383/1.92k [04:55<37:55, 1.48s/it][2m[36m(pid=252851) [0m:  20%|██        | 384/1.92k [04:56<34:30, 1.35s/it][2m[36m(pid=252851) [0m:  20%|██        | 384/1.92k [04:56<34:30, 1.35s/it][2m[36m(pid=252851) [0m:  20%|██        | 385/1.92k [04:57<32:03, 1.25s/it][2m[36m(pid=252851) [0m:  20%|██        | 385/1.92k [04:57<32:03, 1.25s/it][2m[36m(pid=252851) [0m:  20%|██        | 387/1.92k [04:59<27:31, 1.08s/it][2m[36m(pid=252851) [0m:  20%|██        | 387/1.92k [04:59<27:31, 1.08s/it][2m[36m(pid=252851) [0m:  20%|██        | 389/1.92k [05:00<24:50, 1.03it/s][2m[36m(pid=252851) [0m:  20%|██        | 389/1.92k [05:00<24:50, 1.03it/s][2m[36m(pid=252851) [0m:  20%|██        | 390/1.92k [05:01<25:39, 1.01s/it][2m[36m(pid=252851) [0m:  20%|██        | 390/1.92k [05:01<25:39, 1.01s/it][2m[36m(pid=252851) [0m:  20%|██        | 392/1.92k [05:03<22:14, 1.14it/s][2m[36m(pid=252851) [0m:  20%|██        | 392/1.92k [05:03<22:14, 1.14it/s]                                                                 [36m(BenchmarkWorker pid=252851)[0m /home/t-jialianggu/work/sglang/python/sglang/srt/layers/moe/fused_moe_triton/fused_moe_triton_kernels.py:610:24: error: operand #0 does not dominate this use
[2m[36m(pid=252851) [0m:  20%|██        | 392/1.92k [05:03<22:14, 1.14it/s]                                                                 [36m(BenchmarkWorker pid=252851)[0m     c_mask = token_mask[:, None] & (offs_cn[None, :] < N)
[2m[36m(pid=252851) [0m:  20%|██        | 392/1.92k [05:03<22:14, 1.14it/s]                                                                 [36m(BenchmarkWorker pid=252851)[0m                        ^
[2m[36m(pid=252851) [0m:  20%|██        | 392/1.92k [05:03<22:14, 1.14it/s]                                                                 [36m(BenchmarkWorker pid=252851)[0m /home/t-jialianggu/work/sglang/python/sglang/srt/layers/moe/fused_moe_triton/fused_moe_triton_kernels.py:531:32: note: operand defined here (op in a child region)
[2m[36m(pid=252851) [0m:  20%|██        | 392/1.92k [05:03<22:14, 1.14it/s]                                                                 [36m(BenchmarkWorker pid=252851)[0m                 mask=token_mask[:, None],
[2m[36m(pid=252851) [0m:  20%|██        | 392/1.92k [05:03<22:14, 1.14it/s]                                                                 [36m(BenchmarkWorker pid=252851)[0m                                ^
[2m[36m(pid=252851) [0m:  20%|██        | 392/1.92k [05:03<22:14, 1.14it/s]                                                                 [36m(BenchmarkWorker pid=252851)[0m module {
[2m[36m(pid=252851) [0m:  20%|██        | 392/1.92k [05:03<22:14, 1.14it/s]                                                                 [36m(BenchmarkWorker pid=252851)[0m   tt.func public @fused_moe_kernel(%arg0: !tt.ptr<bf16> {tt.divisibility = 16 : i32}, %arg1: !tt.ptr<bf16> {tt.divisibility = 16 : i32}, %arg2: !tt.ptr<bf16> {tt.divisibility = 16 : i32}, %arg3: !tt.ptr<f32> {tt.divisibility = 16 : i32}, %arg4: !tt.ptr<i32> {tt.divisibility = 16 : i32}, %arg5: !tt.ptr<i32> {tt.divisibility = 16 : i32}, %arg6: !tt.ptr<i32> {tt.divisibility = 16 : i32}, %arg7: i32 {tt.divisibility = 16 : i32}, %arg8: i32 {tt.divisibility = 16 : i32}, %arg9: i32, %arg10: i32 {tt.divisibility = 16 : i32}, %arg11: i32 {tt.divisibility = 16 : i32}, %arg12: i32 {tt.divisibility = 16 : i32}, %arg13: i32 {tt.divisibility = 16 : i32}, %arg14: i32 {tt.divisibility = 16 : i32}, %arg15: i32 {tt.divisibility = 16 : i32}, %arg16: i32 {tt.divisibility = 16 : i32}, %arg17: i32 {tt.divisibility = 16 : i32}, %arg18: i32 {tt.divisibility = 16 : i32}, %arg19: i32 {tt.divisibility = 16 : i32}, %arg20: i32 {tt.divisibility = 16 : i32}, %arg21: i32 {tt.divisibility = 16 : i32}) attributes {noinline = false} {
[2m[36m(pid=252851) [0m:  20%|██        | 392/1.92k [05:03<22:14, 1.14it/s]                                                                 [36m(BenchmarkWorker pid=252851)[0m     %c63_i32 = arith.constant 63 : i32
[2m[36m(pid=252851) [0m:  20%|██        | 392/1.92k [05:03<22:14, 1.14it/s]                                                                 [36m(BenchmarkWorker pid=252851)[0m     %c255_i32 = arith.constant 255 : i32
[2m[36m(pid=252851) [0m:  20%|██        | 392/1.92k [05:03<22:14, 1.14it/s]                                                                 [36m(BenchmarkWorker pid=252851)[0m     %cst = arith.constant dense<0.000000e+00> : tensor<256x64xbf16>
[2m[36m(pid=252851) [0m:  20%|██        | 392/1.92k [05:03<22:14, 1.14it/s]                                                                 [36m(BenchmarkWorker pid=252851)[0m     %c0_i32 = arith.constant 0 : i32
[2m[36m(pid=252851) [0m:  20%|██        | 392/1.92k [05:03<22:14, 1.14it/s]                                                                 [36m(BenchmarkWorker pid=252851)[0m     %c-1_i64 = arith.constant -1 : i64
[2m[36m(pid=252851) [0m:  20%|██        | 392/1.92k [05:03<22:14, 1.14it/s]                                                                 [36m(BenchmarkWorker pid=252851)[0m     %cst_0 = arith.constant dense<64> : tensor<64x64xi32>
[2m[36m(pid=252851) [0m:  20%|██        | 392/1.92k [05:03<22:14, 1.14it/s]                                                                 [36m(BenchmarkWorker pid=252851)[0m     %cst_1 = arith.constant dense<64> : tensor<256x64xi32>
[2m[36m(pid=252851) [0m:  20%|██        | 392/1.92k [05:03<22:14, 1.14it/s]                                                                 [36m(BenchmarkWorker pid=252851)[0m     %cst_2 = arith.constant dense<0.000000e+00> : tensor<256x64xf32>
[2m[36m(pid=252851) [0m:  20%|██        | 392/1.92k [05:03<22:14, 1.14it/s]                                                                 [36m(BenchmarkWorker pid=252851)[0m     %cst_3 = arith.constant dense<8> : tensor<256x1xi64>
[2m[36m(pid=252851) [0m:  20%|██        | 392/1.92k [05:03<22:14, 1.14it/s]                                                                 [36m(BenchmarkWorker pid=252851)[0m     %c64_i32 = arith.constant 64 : i32
[2m[36m(pid=252851) [0m:  20%|██        | 392/1.92k [05:03<22:14, 1.14it/s]                                                                 [36m(BenchmarkWorker pid=252851)[0m     %c256_i32 = arith.constant 256 : i32
[2m[36m(pid=252851) [0m:  20%|██        | 392/1.92k [05:03<22:14, 1.14it/s]                                                                 [36m(BenchmarkWorker pid=252851)[0m     %c1_i32 = arith.constant 1 : i32
[2m[36m(pid=252851) [0m:  20%|██        | 392/1.92k [05:03<22:14, 1.14it/s]                                                                 [36m(BenchmarkWorker pid=252851)[0m     %0 = tt.get_program_id x : i32
[2m[36m(pid=252851) [0m:  20%|██        | 392/1.92k [05:03<22:14, 1.14it/s]                                                                 [36m(BenchmarkWorker pid=252851)[0m     %1 = arith.addi %arg9, %c255_i32 : i32
[2m[36m(pid=252851) [0m:  20%|██        | 392/1.92k [05:03<22:14, 1.14it/s]                                                                 [36m(BenchmarkWorker pid=252851)[0m     %2 = arith.divsi %1, %c256_i32 : i32
[2m[36m(pid=252851) [0m:  20%|██        | 392/1.92k [05:03<22:14, 1.14it/s]                                                                 [36m(BenchmarkWorker pid=252851)[0m     %3 = arith.addi %arg7, %c63_i32 : i32
[2m[36m(pid=252851) [0m:  20%|██        | 392/1.92k [05:03<22:14, 1.14it/s]                                                                 [36m(BenchmarkWorker pid=252851)[0m     %4 = arith.divsi %3, %c64_i32 : i32
[2m[36m(pid=252851) [0m:  20%|██        | 392/1.92k [05:03<22:14, 1.14it/s]                                                                 [36m(BenchmarkWorker pid=252851)[0m     %5 = arith.divsi %0, %4 : i32
[2m[36m(pid=252851) [0m:  20%|██        | 392/1.92k [05:03<22:14, 1.14it/s]                                                                 [36m(BenchmarkWorker pid=252851)[0m     %6 = arith.subi %2, %5 : i32
[2m[36m(pid=252851) [0m:  20%|██        | 392/1.92k [05:03<22:14, 1.14it/s]                                                                 [36m(BenchmarkWorker pid=252851)[0m     %7 = arith.minsi %6, %c1_i32 : i32
[2m[36m(pid=252851) [0m:  20%|██        | 392/1.92k [05:03<22:14, 1.14it/s]                                                                 [36m(BenchmarkWorker pid=252851)[0m     %8 = arith.remsi %0, %4 : i32
[2m[36m(pid=252851) [0m:  20%|██        | 392/1.92k [05:03<22:14, 1.14it/s]                                                                 [36m(BenchmarkWorker pid=252851)[0m     %9 = arith.remsi %8, %7 : i32
[2m[36m(pid=252851) [0m:  20%|██        | 392/1.92k [05:03<22:14, 1.14it/s]                                                                 [36m(BenchmarkWorker pid=252851)[0m     %10 = arith.addi %5, %9 : i32
[2m[36m(pid=252851) [0m:  20%|██        | 392/1.92k [05:03<22:14, 1.14it/s]                                                                 [36m(BenchmarkWorker pid=252851)[0m     %11 = arith.divsi %8, %7 : i32
[2m[36m(pid=252851) [0m:  20%|██        | 392/1.92k [05:03<22:14, 1.14it/s]                                                                 [36m(BenchmarkWorker pid=252851)[0m     %12 = tt.load %arg6 : !tt.ptr<i32>
[2m[36m(pid=252851) [0m:  20%|██        | 392/1.92k [05:03<22:14, 1.14it/s]                                                                 [36m(BenchmarkWorker pid=252851)[0m     %13 = arith.muli %10, %c256_i32 : i32
[2m[36m(pid=252851) [0m:  20%|██        | 392/1.92k [05:03<22:14, 1.14it/s]                                                                 [36m(BenchmarkWorker pid=252851)[0m     %14 = arith.cmpi sge, %13, %12 : i32
[2m[36m(pid=252851) [0m:  20%|██        | 392/1.92k [05:03<22:14, 1.14it/s]                                                                 [36m(BenchmarkWorker pid=252851)[0m     cf.cond_br %14, ^bb1, ^bb2
[2m[36m(pid=252851) [0m:  20%|██        | 392/1.92k [05:03<22:14, 1.14it/s]                                                                 [36m(BenchmarkWorker pid=252851)[0m   ^bb1:  // pred: ^bb0
[2m[36m(pid=252851) [0m:  20%|██        | 392/1.92k [05:03<22:14, 1.14it/s]                                                                 [36m(BenchmarkWorker pid=252851)[0m     tt.return
[2m[36m(pid=252851) [0m:  20%|██        | 392/1.92k [05:03<22:14, 1.14it/s]                                                                 [36m(BenchmarkWorker pid=252851)[0m   ^bb2:  // pred: ^bb0
[2m[36m(pid=252851) [0m:  20%|██        | 392/1.92k [05:03<22:14, 1.14it/s]                                                                 [36m(BenchmarkWorker pid=252851)[0m     %15 = tt.make_range {end = 256 : i32, start = 0 : i32} : tensor<256xi32>
[2m[36m(pid=252851) [0m:  20%|██        | 392/1.92k [05:03<22:14, 1.14it/s]                                                                 [36m(BenchmarkWorker pid=252851)[0m     %16 = arith.extsi %15 : tensor<256xi32> to tensor<256xi64>
[2m[36m(pid=252851) [0m:  20%|██        | 392/1.92k [05:03<22:14, 1.14it/s]                                                                 [36m(BenchmarkWorker pid=252851)[0m     %17 = arith.extsi %13 : i32 to i64
[2m[36m(pid=252851) [0m:  20%|██        | 392/1.92k [05:03<22:14, 1.14it/s]                                                                 [36m(BenchmarkWorker pid=252851)[0m     %18 = tt.splat %17 : i64 -> tensor<256xi64>
[2m[36m(pid=252851) [0m:  20%|██        | 392/1.92k [05:03<22:14, 1.14it/s]                                                                 [36m(BenchmarkWorker pid=252851)[0m     %19 = arith.addi %18, %16 : tensor<256xi64>
[2m[36m(pid=252851) [0m:  20%|██        | 392/1.92k [05:03<22:14, 1.14it/s]                                                                 [36m(BenchmarkWorker pid=252851)[0m     %20 = tt.splat %arg4 : !tt.ptr<i32> -> tensor<256x!tt.ptr<i32>>
[2m[36m(pid=252851) [0m:  20%|██        | 392/1.92k [05:03<22:14, 1.14it/s]                                                                 [36m(BenchmarkWorker pid=252851)[0m     %21 = tt.addptr %20, %19 : tensor<256x!tt.ptr<i32>>, tensor<256xi64>
[2m[36m(pid=252851) [0m:  20%|██        | 392/1.92k [05:03<22:14, 1.14it/s]                                                                 [36m(BenchmarkWorker pid=252851)[0m     %22 = tt.load %21 : tensor<256x!tt.ptr<i32>>
[2m[36m(pid=252851) [0m:  20%|██        | 392/1.92k [05:03<22:14, 1.14it/s]                                                                 [36m(BenchmarkWorker pid=252851)[0m     %23 = arith.extsi %22 : tensor<256xi32> to tensor<256xi64>
[2m[36m(pid=252851) [0m:  20%|██        | 392/1.92k [05:03<22:14, 1.14it/s]                                                                 [36m(BenchmarkWorker pid=252851)[0m     %24 = arith.extsi %arg10 : i32 to i64
[2m[36m(pid=252851) [0m:  20%|██        | 392/1.92k [05:03<22:14, 1.14it/s]                                                                 [36m(BenchmarkWorker pid=252851)[0m     %25 = tt.splat %24 : i64 -> tensor<256xi64>
[2m[36m(pid=252851) [0m:  20%|██        | 392/1.92k [05:03<22:14, 1.14it/s]                                                                 [36m(BenchmarkWorker pid=252851)[0m     %26 = arith.cmpi slt, %23, %25 : tensor<256xi64>
[2m[36m(pid=252851) [0m:  20%|██        | 392/1.92k [05:03<22:14, 1.14it/s]                                                                 [36m(BenchmarkWorker pid=252851)[0m     %27 = tt.addptr %arg5, %10 : !tt.ptr<i32>, i32
[2m[36m(pid=252851) [0m:  20%|██        | 392/1.92k [05:03<22:14, 1.14it/s]                                                                 [36m(BenchmarkWorker pid=252851)[0m     %28 = tt.load %27 : !tt.ptr<i32>
[2m[36m(pid=252851) [0m:  20%|██        | 392/1.92k [05:03<22:14, 1.14it/s]                                                                 [36m(BenchmarkWorker pid=252851)[0m     %29 = arith.extsi %28 : i32 to i64
[2m[36m(pid=252851) [0m:  20%|██        | 392/1.92k [05:03<22:14, 1.14it/s]                                                                 [36m(BenchmarkWorker pid=252851)[0m     %30 = arith.cmpi eq, %29, %c-1_i64 : i64
[2m[36m(pid=252851) [0m:  20%|██        | 392/1.92k [05:03<22:14, 1.14it/s]                                                                 [36m(BenchmarkWorker pid=252851)[0m     cf.cond_br %30, ^bb3, ^bb4
[2m[36m(pid=252851) [0m:  20%|██        | 392/1.92k [05:03<22:14, 1.14it/s]                                                                 [36m(BenchmarkWorker pid=252851)[0m   ^bb3:  // pred: ^bb2
[2m[36m(pid=252851) [0m:  20%|██        | 392/1.92k [05:03<22:14, 1.14it/s]                                                                 [36m(BenchmarkWorker pid=252851)[0m     %31 = arith.muli %11, %c64_i32 : i32
[2m[36m(pid=252851) [0m:  20%|██        | 392/1.92k [05:03<22:14, 1.14it/s]                                                                 [36m(BenchmarkWorker pid=252851)[0m     %32 = tt.make_range {end = 64 : i32, start = 0 : i32} : tensor<64xi32>
[2m[36m(pid=252851) [0m:  20%|██        | 392/1.92k [05:03<22:14, 1.14it/s]                                                                 [36m(BenchmarkWorker pid=252851)[0m     %33 = tt.splat %31 : i32 -> tensor<64xi32>
[2m[36m(pid=252851) [0m:  20%|██        | 392/1.92k [05:03<22:14, 1.14it/s]                                                                 [36m(BenchmarkWorker pid=252851)[0m     %34 = arith.addi %33, %32 : tensor<64xi32>
[2m[36m(pid=252851) [0m:  20%|██        | 392/1.92k [05:03<22:14, 1.14it/s]                                                                 [36m(BenchmarkWorker pid=252851)[0m     %35 = tt.expand_dims %23 {axis = 1 : i32} : tensor<256xi64> -> tensor<256x1xi64>
[2m[36m(pid=252851) [0m:  20%|██        | 392/1.92k [05:03<22:14, 1.14it/s]                                                                 [36m(BenchmarkWorker pid=252851)[0m     %36 = arith.extsi %arg16 : i32 to i64
[2m[36m(pid=252851) [0m:  20%|██        | 392/1.92k [05:03<22:14, 1.14it/s]                                                                 [36m(BenchmarkWorker pid=252851)[0m     %37 = tt.splat %36 : i64 -> tensor<256x1xi64>
[2m[36m(pid=252851) [0m:  20%|██        | 392/1.92k [05:03<22:14, 1.14it/s]                                                                 [36m(BenchmarkWorker pid=252851)[0m     %38 = arith.muli %37, %35 : tensor<256x1xi64>
[2m[36m(pid=252851) [0m:  20%|██        | 392/1.92k [05:03<22:14, 1.14it/s]                                                                 [36m(BenchmarkWorker pid=252851)[0m     %39 = tt.splat %arg2 : !tt.ptr<bf16> -> tensor<256x1x!tt.ptr<bf16>>
[2m[36m(pid=252851) [0m:  20%|██        | 392/1.92k [05:03<22:14, 1.14it/s]                                                                 [36m(BenchmarkWorker pid=252851)[0m     %40 = tt.addptr %39, %38 : tensor<256x1x!tt.ptr<bf16>>, tensor<256x1xi64>
[2m[36m(pid=252851) [0m:  20%|██        | 392/1.92k [05:03<22:14, 1.14it/s]                                                                 [36m(BenchmarkWorker pid=252851)[0m     %41 = tt.expand_dims %34 {axis = 0 : i32} : tensor<64xi32> -> tensor<1x64xi32>
[2m[36m(pid=252851) [0m:  20%|██        | 392/1.92k [05:03<22:14, 1.14it/s]                                                                 [36m(BenchmarkWorker pid=252851)[0m     %42 = tt.broadcast %40 : tensor<256x1x!tt.ptr<bf16>> -> tensor<256x64x!tt.ptr<bf16>>
[2m[36m(pid=252851) [0m:  20%|██        | 392/1.92k [05:03<22:14, 1.14it/s]                                                                 [36m(BenchmarkWorker pid=252851)[0m     %43 = tt.broadcast %41 : tensor<1x64xi32> -> tensor<256x64xi32>
[2m[36m(pid=252851) [0m:  20%|██        | 392/1.92k [05:03<22:14, 1.14it/s]                                                                 [36m(BenchmarkWorker pid=252851)[0m     %44 = tt.addptr %42, %43 : tensor<256x64x!tt.ptr<bf16>>, tensor<256x64xi32>
[2m[36m(pid=252851) [0m:  20%|██        | 392/1.92k [05:03<22:14, 1.14it/s]                                                                 [36m(BenchmarkWorker pid=252851)[0m     %45 = tt.expand_dims %26 {axis = 1 : i32} : tensor<256xi1> -> tensor<256x1xi1>
[2m[36m(pid=252851) [0m:  20%|██        | 392/1.92k [05:03<22:14, 1.14it/s]                                                                 [36m(BenchmarkWorker pid=252851)[0m     %46 = tt.splat %arg7 : i32 -> tensor<1x64xi32>
[2m[36m(pid=252851) [0m:  20%|██        | 392/1.92k [05:03<22:14, 1.14it/s]                                                                 [36m(BenchmarkWorker pid=252851)[0m     %47 = arith.cmpi slt, %41, %46 : tensor<1x64xi32>
[2m[36m(pid=252851) [0m:  20%|██        | 392/1.92k [05:03<22:14, 1.14it/s]                                                                 [36m(BenchmarkWorker pid=252851)[0m     %48 = tt.broadcast %45 : tensor<256x1xi1> -> tensor<256x64xi1>
[2m[36m(pid=252851) [0m:  20%|██        | 392/1.92k [05:03<22:14, 1.14it/s]                                                                 [36m(BenchmarkWorker pid=252851)[0m     %49 = tt.broadcast %47 : tensor<1x64xi1> -> tensor<256x64xi1>
[2m[36m(pid=252851) [0m:  20%|██        | 392/1.92k [05:03<22:14, 1.14it/s]                                                                 [36m(BenchmarkWorker pid=252851)[0m     %50 = arith.andi %48, %49 : tensor<256x64xi1>
[2m[36m(pid=252851) [0m:  20%|██        | 392/1.92k [05:03<22:14, 1.14it/s]                                                                 [36m(BenchmarkWorker pid=252851)[0m     tt.store %44, %cst, %50 : tensor<256x64x!tt.ptr<bf16>>
[2m[36m(pid=252851) [0m:  20%|██        | 392/1.92k [05:03<22:14, 1.14it/s]                                                                 [36m(BenchmarkWorker pid=252851)[0m     tt.return
[2m[36m(pid=252851) [0m:  20%|██        | 392/1.92k [05:03<22:14, 1.14it/s]                                                                 [36m(BenchmarkWorker pid=252851)[0m   ^bb4:  // pred: ^bb2
[2m[36m(pid=252851) [0m:  20%|██        | 392/1.92k [05:03<22:14, 1.14it/s]                                                                 [36m(BenchmarkWorker pid=252851)[0m     %51 = arith.muli %11, %c64_i32 : i32
[2m[36m(pid=252851) [0m:  20%|██        | 392/1.92k [05:03<22:14, 1.14it/s]                                                                 [36m(BenchmarkWorker pid=252851)[0m     %52 = tt.make_range {end = 64 : i32, start = 0 : i32} : tensor<64xi32>
[2m[36m(pid=252851) [0m:  20%|██        | 392/1.92k [05:03<22:14, 1.14it/s]                                                                 [36m(BenchmarkWorker pid=252851)[0m     %53 = arith.extsi %52 : tensor<64xi32> to tensor<64xi64>
[2m[36m(pid=252851) [0m:  20%|██        | 392/1.92k [05:03<22:14, 1.14it/s]                                                                 [36m(BenchmarkWorker pid=252851)[0m     %54 = arith.extsi %51 : i32 to i64
[2m[36m(pid=252851) [0m:  20%|██        | 392/1.92k [05:03<22:14, 1.14it/s]                                                                 [36m(BenchmarkWorker pid=252851)[0m     %55 = tt.splat %54 : i64 -> tensor<64xi64>
[2m[36m(pid=252851) [0m:  20%|██        | 392/1.92k [05:03<22:14, 1.14it/s]                                                                 [36m(BenchmarkWorker pid=252851)[0m     %56 = arith.addi %55, %53 : tensor<64xi64>
[2m[36m(pid=252851) [0m:  20%|██        | 392/1.92k [05:03<22:14, 1.14it/s]                                                                 [36m(BenchmarkWorker pid=252851)[0m     %57 = arith.extsi %arg7 : i32 to i64
[2m[36m(pid=252851) [0m:  20%|██        | 392/1.92k [05:03<22:14, 1.14it/s]                                                                 [36m(BenchmarkWorker pid=252851)[0m     %58 = tt.splat %57 : i64 -> tensor<64xi64>
[2m[36m(pid=252851) [0m:  20%|██        | 392/1.92k [05:03<22:14, 1.14it/s]                                                                 [36m(BenchmarkWorker pid=252851)[0m     %59 = arith.remsi %56, %58 : tensor<64xi64>
[2m[36m(pid=252851) [0m:  20%|██        | 392/1.92k [05:03<22:14, 1.14it/s]                                                                 [36m(BenchmarkWorker pid=252851)[0m     %60 = tt.expand_dims %23 {axis = 1 : i32} : tensor<256xi64> -> tensor<256x1xi64>
[2m[36m(pid=252851) [0m:  20%|██        | 392/1.92k [05:03<22:14, 1.14it/s]                                                                 [36m(BenchmarkWorker pid=252851)[0m     %61 = arith.divsi %60, %cst_3 : tensor<256x1xi64>
[2m[36m(pid=252851) [0m:  20%|██        | 392/1.92k [05:03<22:14, 1.14it/s]                                                                 [36m(BenchmarkWorker pid=252851)[0m     %62 = arith.extsi %arg11 : i32 to i64
[2m[36m(pid=252851) [0m:  20%|██        | 392/1.92k [05:03<22:14, 1.14it/s]                                                                 [36m(BenchmarkWorker pid=252851)[0m     %63 = tt.splat %62 : i64 -> tensor<256x1xi64>
[2m[36m(pid=252851) [0m:  20%|██        | 392/1.92k [05:03<22:14, 1.14it/s]                                                                 [36m(BenchmarkWorker pid=252851)[0m     %64 = arith.muli %61, %63 : tensor<256x1xi64>
[2m[36m(pid=252851) [0m:  20%|██        | 392/1.92k [05:03<22:14, 1.14it/s]                                                                 [36m(BenchmarkWorker pid=252851)[0m     %65 = tt.expand_dims %52 {axis = 0 : i32} : tensor<64xi32> -> tensor<1x64xi32>
[2m[36m(pid=252851) [0m:  20%|██        | 392/1.92k [05:03<22:14, 1.14it/s]                                                                 [36m(BenchmarkWorker pid=252851)[0m     %66 = arith.extsi %65 : tensor<1x64xi32> to tensor<1x64xi64>
[2m[36m(pid=252851) [0m:  20%|██        | 392/1.92k [05:03<22:14, 1.14it/s]                                                                 [36m(BenchmarkWorker pid=252851)[0m     %67 = tt.broadcast %64 : tensor<256x1xi64> -> tensor<256x64xi64>
[2m[36m(pid=252851) [0m:  20%|██        | 392/1.92k [05:03<22:14, 1.14it/s]                                                                 [36m(BenchmarkWorker pid=252851)[0m     %68 = tt.broadcast %66 : tensor<1x64xi64> -> tensor<256x64xi64>
[2m[36m(pid=252851) [0m:  20%|██        | 392/1.92k [05:03<22:14, 1.14it/s]                                                                 [36m(BenchmarkWorker pid=252851)[0m     %69 = arith.addi %67, %68 : tensor<256x64xi64>
[2m[36m(pid=252851) [0m:  20%|██        | 392/1.92k [05:03<22:14, 1.14it/s]                                                                 [36m(BenchmarkWorker pid=252851)[0m     %70 = tt.splat %arg0 : !tt.ptr<bf16> -> tensor<256x64x!tt.ptr<bf16>>
[2m[36m(pid=252851) [0m:  20%|██        | 392/1.92k [05:03<22:14, 1.14it/s]                                                                 [36m(BenchmarkWorker pid=252851)[0m     %71 = tt.addptr %70, %69 : tensor<256x64x!tt.ptr<bf16>>, tensor<256x64xi64>
[2m[36m(pid=252851) [0m:  20%|██        | 392/1.92k [05:03<22:14, 1.14it/s]                                                                 [36m(BenchmarkWorker pid=252851)[0m     %72 = arith.extsi %arg12 : i32 to i64
[2m[36m(pid=252851) [0m:  20%|██        | 392/1.92k [05:03<22:14, 1.14it/s]                                                                 [36m(BenchmarkWorker pid=252851)[0m     %73 = arith.muli %29, %72 : i64
[2m[36m(pid=252851) [0m:  20%|██        | 392/1.92k [05:03<22:14, 1.14it/s]                                                                 [36m(BenchmarkWorker pid=252851)[0m     %74 = tt.addptr %arg1, %73 : !tt.ptr<bf16>, i64
[2m[36m(pid=252851) [0m:  20%|██        | 392/1.92k [05:03<22:14, 1.14it/s]                                                                 [36m(BenchmarkWorker pid=252851)[0m     %75 = tt.expand_dims %52 {axis = 1 : i32} : tensor<64xi32> -> tensor<64x1xi32>
[2m[36m(pid=252851) [0m:  20%|██        | 392/1.92k [05:03<22:14, 1.14it/s]                                                                 [36m(BenchmarkWorker pid=252851)[0m     %76 = tt.expand_dims %59 {axis = 0 : i32} : tensor<64xi64> -> tensor<1x64xi64>
[2m[36m(pid=252851) [0m:  20%|██        | 392/1.92k [05:03<22:14, 1.14it/s]                                                                 [36m(BenchmarkWorker pid=252851)[0m     %77 = arith.extsi %arg13 : i32 to i64
[2m[36m(pid=252851) [0m:  20%|██        | 392/1.92k [05:03<22:14, 1.14it/s]                                                                 [36m(BenchmarkWorker pid=252851)[0m     %78 = tt.splat %77 : i64 -> tensor<1x64xi64>
[2m[36m(pid=252851) [0m:  20%|██        | 392/1.92k [05:03<22:14, 1.14it/s]                                                                 [36m(BenchmarkWorker pid=252851)[0m     %79 = arith.muli %76, %78 : tensor<1x64xi64>
[2m[36m(pid=252851) [0m:  20%|██        | 392/1.92k [05:03<22:14, 1.14it/s]                                                                 [36m(BenchmarkWorker pid=252851)[0m     %80 = arith.extsi %75 : tensor<64x1xi32> to tensor<64x1xi64>
[2m[36m(pid=252851) [0m:  20%|██        | 392/1.92k [05:03<22:14, 1.14it/s]                                                                 [36m(BenchmarkWorker pid=252851)[0m     %81 = tt.broadcast %80 : tensor<64x1xi64> -> tensor<64x64xi64>
[2m[36m(pid=252851) [0m:  20%|██        | 392/1.92k [05:03<22:14, 1.14it/s]                                                                 [36m(BenchmarkWorker pid=252851)[0m     %82 = tt.broadcast %79 : tensor<1x64xi64> -> tensor<64x64xi64>
[2m[36m(pid=252851) [0m:  20%|██        | 392/1.92k [05:03<22:14, 1.14it/s]                                                                 [36m(BenchmarkWorker pid=252851)[0m     %83 = arith.addi %81, %82 : tensor<64x64xi64>
[2m[36m(pid=252851) [0m:  20%|██        | 392/1.92k [05:03<22:14, 1.14it/s]                                                                 [36m(BenchmarkWorker pid=252851)[0m     %84 = tt.splat %74 : !tt.ptr<bf16> -> tensor<64x64x!tt.ptr<bf16>>
[2m[36m(pid=252851) [0m:  20%|██        | 392/1.92k [05:03<22:14, 1.14it/s]                                                                 [36m(BenchmarkWorker pid=252851)[0m     %85 = tt.addptr %84, %83 : tensor<64x64x!tt.ptr<bf16>>, tensor<64x64xi64>
[2m[36m(pid=252851) [0m:  20%|██        | 392/1.92k [05:03<22:14, 1.14it/s]                                                                 [36m(BenchmarkWorker pid=252851)[0m     %86:3 = scf.for %arg22 = %c0_i32 to %arg8 step %c64_i32 iter_args(%arg23 = %71, %arg24 = %85, %arg25 = %cst_2) -> (tensor<256x64x!tt.ptr<bf16>>, tensor<64x64x!tt.ptr<bf16>>, tensor<256x64xf32>)  : i32 {
[2m[36m(pid=252851) [0m:  20%|██        | 392/1.92k [05:03<22:14, 1.14it/s]                                                                 [36m(BenchmarkWorker pid=252851)[0m       %105 = tt.expand_dims %26 {axis = 1 : i32} : tensor<256xi1> -> tensor<256x1xi1>
[2m[36m(pid=252851) [0m:  20%|██        | 392/1.92k [05:03<22:14, 1.14it/s]                                                                 [36m(BenchmarkWorker pid=252851)[0m       %106 = tt.broadcast %105 : tensor<256x1xi1> -> tensor<256x64xi1>
[2m[36m(pid=252851) [0m:  20%|██        | 392/1.92k [05:03<22:14, 1.14it/s]                                                                 [36m(BenchmarkWorker pid=252851)[0m       %107 = tt.load %arg23, %106, %cst : tensor<256x64x!tt.ptr<bf16>>
[2m[36m(pid=252851) [0m:  20%|██        | 392/1.92k [05:03<22:14, 1.14it/s]                                                                 [36m(BenchmarkWorker pid=252851)[0m       %108 = tt.load %arg24 : tensor<64x64x!tt.ptr<bf16>>
[2m[36m(pid=252851) [0m:  20%|██        | 392/1.92k [05:03<22:14, 1.14it/s]                                                                 [36m(BenchmarkWorker pid=252851)[0m       %109 = tt.dot %107, %108, %arg25, inputPrecision = tf32 : tensor<256x64xbf16> * tensor<64x64xbf16> -> tensor<256x64xf32>
[2m[36m(pid=252851) [0m:  20%|██        | 392/1.92k [05:03<22:14, 1.14it/s]                                                                 [36m(BenchmarkWorker pid=252851)[0m       %110 = tt.addptr %arg23, %cst_1 : tensor<256x64x!tt.ptr<bf16>>, tensor<256x64xi32>
[2m[36m(pid=252851) [0m:  20%|██        | 392/1.92k [05:03<22:14, 1.14it/s]                                                                 [36m(BenchmarkWorker pid=252851)[0m       %111 = tt.addptr %arg24, %cst_0 : tensor<64x64x!tt.ptr<bf16>>, tensor<64x64xi32>
[2m[36m(pid=252851) [0m:  20%|██        | 392/1.92k [05:03<22:14, 1.14it/s]                                                                 [36m(BenchmarkWorker pid=252851)[0m       scf.yield %110, %111, %109 : tensor<256x64x!tt.ptr<bf16>>, tensor<64x64x!tt.ptr<bf16>>, tensor<256x64xf32>
[2m[36m(pid=252851) [0m:  20%|██        | 392/1.92k [05:03<22:14, 1.14it/s]                                                                 [36m(BenchmarkWorker pid=252851)[0m     }
[2m[36m(pid=252851) [0m:  20%|██        | 392/1.92k [05:03<22:14, 1.14it/s]                                                                 [36m(BenchmarkWorker pid=252851)[0m     %87 = arith.truncf %86#2 : tensor<256x64xf32> to tensor<256x64xbf16>
[2m[36m(pid=252851) [0m:  20%|██        | 392/1.92k [05:03<22:14, 1.14it/s]                                                                 [36m(BenchmarkWorker pid=252851)[0m     %88 = tt.splat %51 : i32 -> tensor<64xi32>
[2m[36m(pid=252851) [0m:  20%|██        | 392/1.92k [05:03<22:14, 1.14it/s]                                                                 [36m(BenchmarkWorker pid=252851)[0m     %89 = arith.addi %88, %52 : tensor<64xi32>
[2m[36m(pid=252851) [0m:  20%|██        | 392/1.92k [05:03<22:14, 1.14it/s]                                                                 [36m(BenchmarkWorker pid=252851)[0m     %90 = arith.extsi %arg16 : i32 to i64
[2m[36m(pid=252851) [0m:  20%|██        | 392/1.92k [05:03<22:14, 1.14it/s]                                                                 [36m(BenchmarkWorker pid=252851)[0m     %91 = tt.splat %90 : i64 -> tensor<256x1xi64>
[2m[36m(pid=252851) [0m:  20%|██        | 392/1.92k [05:03<22:14, 1.14it/s]                                                                 [36m(BenchmarkWorker pid=252851)[0m     %92 = arith.muli %91, %60 : tensor<256x1xi64>
[2m[36m(pid=252851) [0m:  20%|██        | 392/1.92k [05:03<22:14, 1.14it/s]                                                                 [36m(BenchmarkWorker pid=252851)[0m     %93 = tt.splat %arg2 : !tt.ptr<bf16> -> tensor<256x1x!tt.ptr<bf16>>
[2m[36m(pid=252851) [0m:  20%|██        | 392/1.92k [05:03<22:14, 1.14it/s]                                                                 [36m(BenchmarkWorker pid=252851)[0m     %94 = tt.addptr %93, %92 : tensor<256x1x!tt.ptr<bf16>>, tensor<256x1xi64>
[2m[36m(pid=252851) [0m:  20%|██        | 392/1.92k [05:03<22:14, 1.14it/s]                                                                 [36m(BenchmarkWorker pid=252851)[0m     %95 = tt.expand_dims %89 {axis = 0 : i32} : tensor<64xi32> -> tensor<1x64xi32>
[2m[36m(pid=252851) [0m:  20%|██        | 392/1.92k [05:03<22:14, 1.14it/s]                                                                 [36m(BenchmarkWorker pid=252851)[0m     %96 = tt.broadcast %94 : tensor<256x1x!tt.ptr<bf16>> -> tensor<256x64x!tt.ptr<bf16>>
[2m[36m(pid=252851) [0m:  20%|██        | 392/1.92k [05:03<22:14, 1.14it/s]                                                                 [36m(BenchmarkWorker pid=252851)[0m     %97 = tt.broadcast %95 : tensor<1x64xi32> -> tensor<256x64xi32>
[2m[36m(pid=252851) [0m:  20%|██        | 392/1.92k [05:03<22:14, 1.14it/s]                                                                 [36m(BenchmarkWorker pid=252851)[0m     %98 = tt.addptr %96, %97 : tensor<256x64x!tt.ptr<bf16>>, tensor<256x64xi32>
[2m[36m(pid=252851) [0m:  20%|██        | 392/1.92k [05:03<22:14, 1.14it/s]                                                                 [36m(BenchmarkWorker pid=252851)[0m     %99 = tt.expand_dims %26 {axis = 1 : i32} : tensor<256xi1> -> tensor<256x1xi1>
[2m[36m(pid=252851) [0m:  20%|██        | 392/1.92k [05:03<22:14, 1.14it/s]                                                                 [36m(BenchmarkWorker pid=252851)[0m     %100 = tt.splat %arg7 : i32 -> tensor<1x64xi32>
[2m[36m(pid=252851) [0m:  20%|██        | 392/1.92k [05:03<22:14, 1.14it/s]                                                                 [36m(BenchmarkWorker pid=252851)[0m     %101 = arith.cmpi slt, %95, %100 : tensor<1x64xi32>
[2m[36m(pid=252851) [0m:  20%|██        | 392/1.92k [05:03<22:14, 1.14it/s]                                                                 [36m(BenchmarkWorker pid=252851)[0m     %102 = tt.broadcast %99 : tensor<256x1xi1> -> tensor<256x64xi1>
[2m[36m(pid=252851) [0m:  20%|██        | 392/1.92k [05:03<22:14, 1.14it/s]                                                                 [36m(BenchmarkWorker pid=252851)[0m     %103 = tt.broadcast %101 : tensor<1x64xi1> -> tensor<256x64xi1>
[2m[36m(pid=252851) [0m:  20%|██        | 392/1.92k [05:03<22:14, 1.14it/s]                                                                 [36m(BenchmarkWorker pid=252851)[0m     %104 = arith.andi %102, %103 : tensor<256x64xi1>
[2m[36m(pid=252851) [0m:  20%|██        | 392/1.92k [05:03<22:14, 1.14it/s]                                                                 [36m(BenchmarkWorker pid=252851)[0m     tt.store %98, %87, %104 : tensor<256x64x!tt.ptr<bf16>>
[2m[36m(pid=252851) [0m:  20%|██        | 392/1.92k [05:03<22:14, 1.14it/s]                                                                 [36m(BenchmarkWorker pid=252851)[0m     tt.return
[2m[36m(pid=252851) [0m:  20%|██        | 392/1.92k [05:03<22:14, 1.14it/s]                                                                 [36m(BenchmarkWorker pid=252851)[0m   }
[2m[36m(pid=252851) [0m:  20%|██        | 392/1.92k [05:03<22:14, 1.14it/s]                                                                 [36m(BenchmarkWorker pid=252851)[0m }
[2m[36m(pid=252851) [0m:  20%|██        | 392/1.92k [05:03<22:14, 1.14it/s]                                                                 [36m(BenchmarkWorker pid=252851)[0m 
[2m[36m(pid=252851) [0m:  20%|██        | 392/1.92k [05:03<22:14, 1.14it/s]                                                                 [36m(BenchmarkWorker pid=252851)[0m {-#
[2m[36m(pid=252851) [0m:  20%|██        | 392/1.92k [05:03<22:14, 1.14it/s]                                                                 [36m(BenchmarkWorker pid=252851)[0m   external_resources: {
[2m[36m(pid=252851) [0m:  20%|██        | 392/1.92k [05:03<22:14, 1.14it/s]                                                                 [36m(BenchmarkWorker pid=252851)[0m     mlir_reproducer: {
[2m[36m(pid=252851) [0m:  20%|██        | 392/1.92k [05:03<22:14, 1.14it/s]                                                                 [36m(BenchmarkWorker pid=252851)[0m       pipeline: "builtin.module(convert-triton-to-tritongpu{enable-source-remat=false num-ctas=1 num-warps=4 target=cuda:90 threads-per-warp=32}, tritongpu-coalesce, tritongpu-F32DotTC, triton-nvidia-gpu-plan-cta, tritongpu-remove-layout-conversions, tritongpu-optimize-thread-locality, tritongpu-accelerate-matmul, tritongpu-remove-layout-conversions, tritongpu-optimize-dot-operands{hoist-layout-conversion=true}, triton-nvidia-optimize-descriptor-encoding, triton-loop-aware-cse, tritongpu-fuse-nested-loops, canonicalize{  max-iterations=10 max-num-rewrites=-1 region-simplify=normal test-convergence=false top-down=true}, triton-licm, canonicalize{  max-iterations=10 max-num-rewrites=-1 region-simplify=normal test-convergence=false top-down=true}, tritongpu-combine-tensor-select-and-if, nvgpu-warp-specialization{dump-intermediate-steps=false num-stages=2}, tritongpu-assign-latencies{num-stages=2}, tritongpu-schedule-loops, tritongpu-pipeline{dump-intermediate-steps=false num-stages=2}, canonicalize{  max-iterations=10 max-num-rewrites=-1 region-simplify=normal test-convergence=false top-down=true}, triton-loop-aware-cse, tritongpu-prefetch, tritongpu-optimize-dot-operands{hoist-layout-conversion=true}, tritongpu-coalesce-async-copy, triton-nvidia-optimize-tmem-layouts, tritongpu-remove-layout-conversions, triton-nvidia-interleave-tmem, tritongpu-reduce-data-duplication, tritongpu-reorder-instructions, triton-loop-aware-cse, symbol-dce, triton-nvidia-tma-lowering, triton-nvidia-gpu-fence-insertion{compute-capability=90}, triton-nvidia-mma-lowering, sccp, cse, canonicalize{  max-iterations=10 max-num-rewrites=-1 region-simplify=normal test-convergence=false top-down=true})",
[2m[36m(pid=252851) [0m:  20%|██        | 392/1.92k [05:03<22:14, 1.14it/s]                                                                 [36m(BenchmarkWorker pid=252851)[0m       disable_threading: false,
[2m[36m(pid=252851) [0m:  20%|██        | 392/1.92k [05:03<22:14, 1.14it/s]                                                                 [36m(BenchmarkWorker pid=252851)[0m       verify_each: true
[2m[36m(pid=252851) [0m:  20%|██        | 392/1.92k [05:03<22:14, 1.14it/s]                                                                 [36m(BenchmarkWorker pid=252851)[0m     }
[2m[36m(pid=252851) [0m:  20%|██        | 392/1.92k [05:03<22:14, 1.14it/s]                                                                 [36m(BenchmarkWorker pid=252851)[0m   }
[2m[36m(pid=252851) [0m:  20%|██        | 392/1.92k [05:03<22:14, 1.14it/s]                                                                 [36m(BenchmarkWorker pid=252851)[0m #-}
[2m[36m(pid=252851) [0m:  20%|██        | 392/1.92k [05:03<22:14, 1.14it/s]                                                                 [36m(BenchmarkWorker pid=252851)[0m /home/t-jialianggu/work/sglang/python/sglang/srt/layers/moe/fused_moe_triton/fused_moe_triton_kernels.py:324:0: error: Failures have been detected while processing an MLIR pass pipeline
[2m[36m(pid=252851) [0m:  20%|██        | 392/1.92k [05:03<22:14, 1.14it/s]                                                                 [36m(BenchmarkWorker pid=252851)[0m /home/t-jialianggu/work/sglang/python/sglang/srt/layers/moe/fused_moe_triton/fused_moe_triton_kernels.py:324:0: note: Pipeline failed while executing [`TritonGPURemoveLayoutConversions` on 'builtin.module' operation]: reproducer generated at `std::errs, please share the reproducer above with Triton project.`
[2m[36m(pid=252851) [0m:  20%|██        | 392/1.92k [05:03<22:14, 1.14it/s]                                                                 [36m(BenchmarkWorker pid=252851)[0m /home/t-jialianggu/work/sglang/python/sglang/srt/layers/moe/fused_moe_triton/fused_moe_triton_kernels.py:610:24: error: operand #0 does not dominate this use
[2m[36m(pid=252851) [0m:  20%|██        | 392/1.92k [05:03<22:14, 1.14it/s]                                                                 [36m(BenchmarkWorker pid=252851)[0m     c_mask = token_mask[:, None] & (offs_cn[None, :] < N)
[2m[36m(pid=252851) [0m:  20%|██        | 392/1.92k [05:03<22:14, 1.14it/s]                                                                 [36m(BenchmarkWorker pid=252851)[0m                        ^
[2m[36m(pid=252851) [0m:  20%|██        | 392/1.92k [05:03<22:14, 1.14it/s]                                                                 [36m(BenchmarkWorker pid=252851)[0m /home/t-jialianggu/work/sglang/python/sglang/srt/layers/moe/fused_moe_triton/fused_moe_triton_kernels.py:531:32: note: operand defined here (op in a child region)
[2m[36m(pid=252851) [0m:  20%|██        | 392/1.92k [05:03<22:14, 1.14it/s]                                                                 [36m(BenchmarkWorker pid=252851)[0m                 mask=token_mask[:, None],
[2m[36m(pid=252851) [0m:  20%|██        | 392/1.92k [05:03<22:14, 1.14it/s]                                                                 [36m(BenchmarkWorker pid=252851)[0m                                ^
[2m[36m(pid=252851) [0m:  20%|██        | 392/1.92k [05:03<22:14, 1.14it/s]                                                                 [36m(BenchmarkWorker pid=252851)[0m module {
[2m[36m(pid=252851) [0m:  20%|██        | 392/1.92k [05:03<22:14, 1.14it/s]                                                                 [36m(BenchmarkWorker pid=252851)[0m   tt.func public @fused_moe_kernel(%arg0: !tt.ptr<bf16> {tt.divisibility = 16 : i32}, %arg1: !tt.ptr<bf16> {tt.divisibility = 16 : i32}, %arg2: !tt.ptr<bf16> {tt.divisibility = 16 : i32}, %arg3: !tt.ptr<f32> {tt.divisibility = 16 : i32}, %arg4: !tt.ptr<i32> {tt.divisibility = 16 : i32}, %arg5: !tt.ptr<i32> {tt.divisibility = 16 : i32}, %arg6: !tt.ptr<i32> {tt.divisibility = 16 : i32}, %arg7: i32 {tt.divisibility = 16 : i32}, %arg8: i32 {tt.divisibility = 16 : i32}, %arg9: i32, %arg10: i32 {tt.divisibility = 16 : i32}, %arg11: i32 {tt.divisibility = 16 : i32}, %arg12: i32 {tt.divisibility = 16 : i32}, %arg13: i32 {tt.divisibility = 16 : i32}, %arg14: i32 {tt.divisibility = 16 : i32}, %arg15: i32 {tt.divisibility = 16 : i32}, %arg16: i32 {tt.divisibility = 16 : i32}, %arg17: i32 {tt.divisibility = 16 : i32}, %arg18: i32 {tt.divisibility = 16 : i32}, %arg19: i32 {tt.divisibility = 16 : i32}, %arg20: i32 {tt.divisibility = 16 : i32}, %arg21: i32 {tt.divisibility = 16 : i32}) attributes {noinline = false} {
[2m[36m(pid=252851) [0m:  20%|██        | 392/1.92k [05:03<22:14, 1.14it/s]                                                                 [36m(BenchmarkWorker pid=252851)[0m     %c63_i32 = arith.constant 63 : i32
[2m[36m(pid=252851) [0m:  20%|██        | 392/1.92k [05:03<22:14, 1.14it/s]                                                                 [36m(BenchmarkWorker pid=252851)[0m     %c255_i32 = arith.constant 255 : i32
[2m[36m(pid=252851) [0m:  20%|██        | 392/1.92k [05:03<22:14, 1.14it/s]                                                                 [36m(BenchmarkWorker pid=252851)[0m     %cst = arith.constant dense<0.000000e+00> : tensor<256x64xbf16>
[2m[36m(pid=252851) [0m:  20%|██        | 392/1.92k [05:03<22:14, 1.14it/s]                                                                 [36m(BenchmarkWorker pid=252851)[0m     %c0_i32 = arith.constant 0 : i32
[2m[36m(pid=252851) [0m:  20%|██        | 392/1.92k [05:03<22:14, 1.14it/s]                                                                 [36m(BenchmarkWorker pid=252851)[0m     %c-1_i64 = arith.constant -1 : i64
[2m[36m(pid=252851) [0m:  20%|██        | 392/1.92k [05:03<22:14, 1.14it/s]                                                                 [36m(BenchmarkWorker pid=252851)[0m     %cst_0 = arith.constant dense<64> : tensor<64x64xi32>
[2m[36m(pid=252851) [0m:  20%|██        | 392/1.92k [05:03<22:14, 1.14it/s]                                                                 [36m(BenchmarkWorker pid=252851)[0m     %cst_1 = arith.constant dense<64> : tensor<256x64xi32>
[2m[36m(pid=252851) [0m:  20%|██        | 392/1.92k [05:03<22:14, 1.14it/s]                                                                 [36m(BenchmarkWorker pid=252851)[0m     %cst_2 = arith.constant dense<0.000000e+00> : tensor<256x64xf32>
[2m[36m(pid=252851) [0m:  20%|██        | 392/1.92k [05:03<22:14, 1.14it/s]                                                                 [36m(BenchmarkWorker pid=252851)[0m     %cst_3 = arith.constant dense<8> : tensor<256x1xi64>
[2m[36m(pid=252851) [0m:  20%|██        | 392/1.92k [05:03<22:14, 1.14it/s]                                                                 [36m(BenchmarkWorker pid=252851)[0m     %c64_i32 = arith.constant 64 : i32
[2m[36m(pid=252851) [0m:  20%|██        | 392/1.92k [05:03<22:14, 1.14it/s]                                                                 [36m(BenchmarkWorker pid=252851)[0m     %c256_i32 = arith.constant 256 : i32
[2m[36m(pid=252851) [0m:  20%|██        | 392/1.92k [05:03<22:14, 1.14it/s]                                                                 [36m(BenchmarkWorker pid=252851)[0m     %c16_i32 = arith.constant 16 : i32
[2m[36m(pid=252851) [0m:  20%|██        | 392/1.92k [05:03<22:14, 1.14it/s]                                                                 [36m(BenchmarkWorker pid=252851)[0m     %0 = tt.get_program_id x : i32
[2m[36m(pid=252851) [0m:  20%|██        | 392/1.92k [05:03<22:14, 1.14it/s]                                                                 [36m(BenchmarkWorker pid=252851)[0m     %1 = arith.addi %arg9, %c255_i32 : i32
[2m[36m(pid=252851) [0m:  20%|██        | 392/1.92k [05:03<22:14, 1.14it/s]                                                                 [36m(BenchmarkWorker pid=252851)[0m     %2 = arith.divsi %1, %c256_i32 : i32
[2m[36m(pid=252851) [0m:  20%|██        | 392/1.92k [05:03<22:14, 1.14it/s]                                                                 [36m(BenchmarkWorker pid=252851)[0m     %3 = arith.addi %arg7, %c63_i32 : i32
[2m[36m(pid=252851) [0m:  20%|██        | 392/1.92k [05:03<22:14, 1.14it/s]                                                                 [36m(BenchmarkWorker pid=252851)[0m     %4 = arith.divsi %3, %c64_i32 : i32
[2m[36m(pid=252851) [0m:  20%|██        | 392/1.92k [05:03<22:14, 1.14it/s]                                                                 [36m(BenchmarkWorker pid=252851)[0m     %5 = arith.muli %4, %c16_i32 : i32
[2m[36m(pid=252851) [0m:  20%|██        | 392/1.92k [05:03<22:14, 1.14it/s]                                                                 [36m(BenchmarkWorker pid=252851)[0m     %6 = arith.divsi %0, %5 : i32
[2m[36m(pid=252851) [0m:  20%|██        | 392/1.92k [05:03<22:14, 1.14it/s]                                                                 [36m(BenchmarkWorker pid=252851)[0m     %7 = arith.muli %6, %c16_i32 : i32
[2m[36m(pid=252851) [0m:  20%|██        | 392/1.92k [05:03<22:14, 1.14it/s]                                                                 [36m(BenchmarkWorker pid=252851)[0m     %8 = arith.subi %2, %7 : i32
[2m[36m(pid=252851) [0m:  20%|██        | 392/1.92k [05:03<22:14, 1.14it/s]                                                                 [36m(BenchmarkWorker pid=252851)[0m     %9 = arith.minsi %8, %c16_i32 : i32
[2m[36m(pid=252851) [0m:  20%|██        | 392/1.92k [05:03<22:14, 1.14it/s]                                                                 [36m(BenchmarkWorker pid=252851)[0m     %10 = arith.remsi %0, %5 : i32
[2m[36m(pid=252851) [0m:  20%|██        | 392/1.92k [05:03<22:14, 1.14it/s]                                                                 [36m(BenchmarkWorker pid=252851)[0m     %11 = arith.remsi %10, %9 : i32
[2m[36m(pid=252851) [0m:  20%|██        | 392/1.92k [05:03<22:14, 1.14it/s]                                                                 [36m(BenchmarkWorker pid=252851)[0m     %12 = arith.addi %7, %11 : i32
[2m[36m(pid=252851) [0m:  20%|██        | 392/1.92k [05:03<22:14, 1.14it/s]                                                                 [36m(BenchmarkWorker pid=252851)[0m     %13 = arith.divsi %10, %9 : i32
[2m[36m(pid=252851) [0m:  20%|██        | 392/1.92k [05:03<22:14, 1.14it/s]                                                                 [36m(BenchmarkWorker pid=252851)[0m     %14 = tt.load %arg6 : !tt.ptr<i32>
[2m[36m(pid=252851) [0m:  20%|██        | 392/1.92k [05:03<22:14, 1.14it/s]                                                                 [36m(BenchmarkWorker pid=252851)[0m     %15 = arith.muli %12, %c256_i32 : i32
[2m[36m(pid=252851) [0m:  20%|██        | 392/1.92k [05:03<22:14, 1.14it/s]                                                                 [36m(BenchmarkWorker pid=252851)[0m     %16 = arith.cmpi sge, %15, %14 : i32
[2m[36m(pid=252851) [0m:  20%|██        | 392/1.92k [05:03<22:14, 1.14it/s]                                                                 [36m(BenchmarkWorker pid=252851)[0m     cf.cond_br %16, ^bb1, ^bb2
[2m[36m(pid=252851) [0m:  20%|██        | 392/1.92k [05:03<22:14, 1.14it/s]                                                                 [36m(BenchmarkWorker pid=252851)[0m   ^bb1:  // pred: ^bb0
[2m[36m(pid=252851) [0m:  20%|██        | 392/1.92k [05:03<22:14, 1.14it/s]                                                                 [36m(BenchmarkWorker pid=252851)[0m     tt.return
[2m[36m(pid=252851) [0m:  20%|██        | 392/1.92k [05:03<22:14, 1.14it/s]                                                                 [36m(BenchmarkWorker pid=252851)[0m   ^bb2:  // pred: ^bb0
[2m[36m(pid=252851) [0m:  20%|██        | 392/1.92k [05:03<22:14, 1.14it/s]                                                                 [36m(BenchmarkWorker pid=252851)[0m     %17 = tt.make_range {end = 256 : i32, start = 0 : i32} : tensor<256xi32>
[2m[36m(pid=252851) [0m:  20%|██        | 392/1.92k [05:03<22:14, 1.14it/s]                                                                 [36m(BenchmarkWorker pid=252851)[0m     %18 = arith.extsi %17 : tensor<256xi32> to tensor<256xi64>
[2m[36m(pid=252851) [0m:  20%|██        | 392/1.92k [05:03<22:14, 1.14it/s]                                                                 [36m(BenchmarkWorker pid=252851)[0m     %19 = arith.extsi %15 : i32 to i64
[2m[36m(pid=252851) [0m:  20%|██        | 392/1.92k [05:03<22:14, 1.14it/s]                                                                 [36m(BenchmarkWorker pid=252851)[0m     %20 = tt.splat %19 : i64 -> tensor<256xi64>
[2m[36m(pid=252851) [0m:  20%|██        | 392/1.92k [05:03<22:14, 1.14it/s]                                                                 [36m(BenchmarkWorker pid=252851)[0m     %21 = arith.addi %20, %18 : tensor<256xi64>
[2m[36m(pid=252851) [0m:  20%|██        | 392/1.92k [05:03<22:14, 1.14it/s]                                                                 [36m(BenchmarkWorker pid=252851)[0m     %22 = tt.splat %arg4 : !tt.ptr<i32> -> tensor<256x!tt.ptr<i32>>
[2m[36m(pid=252851) [0m:  20%|██        | 392/1.92k [05:03<22:14, 1.14it/s]                                                                 [36m(BenchmarkWorker pid=252851)[0m     %23 = tt.addptr %22, %21 : tensor<256x!tt.ptr<i32>>, tensor<256xi64>
[2m[36m(pid=252851) [0m:  20%|██        | 392/1.92k [05:03<22:14, 1.14it/s]                                                                 [36m(BenchmarkWorker pid=252851)[0m     %24 = tt.load %23 : tensor<256x!tt.ptr<i32>>
[2m[36m(pid=252851) [0m:  20%|██        | 392/1.92k [05:03<22:14, 1.14it/s]                                                                 [36m(BenchmarkWorker pid=252851)[0m     %25 = arith.extsi %24 : tensor<256xi32> to tensor<256xi64>
[2m[36m(pid=252851) [0m:  20%|██        | 392/1.92k [05:03<22:14, 1.14it/s]                                                                 [36m(BenchmarkWorker pid=252851)[0m     %26 = arith.extsi %arg10 : i32 to i64
[2m[36m(pid=252851) [0m:  20%|██        | 392/1.92k [05:03<22:14, 1.14it/s]                                                                 [36m(BenchmarkWorker pid=252851)[0m     %27 = tt.splat %26 : i64 -> tensor<256xi64>
[2m[36m(pid=252851) [0m:  20%|██        | 392/1.92k [05:03<22:14, 1.14it/s]                                                                 [36m(BenchmarkWorker pid=252851)[0m     %28 = arith.cmpi slt, %25, %27 : tensor<256xi64>
[2m[36m(pid=252851) [0m:  20%|██        | 392/1.92k [05:03<22:14, 1.14it/s]                                                                 [36m(BenchmarkWorker pid=252851)[0m     %29 = tt.addptr %arg5, %12 : !tt.ptr<i32>, i32
[2m[36m(pid=252851) [0m:  20%|██        | 392/1.92k [05:03<22:14, 1.14it/s]                                                                 [36m(BenchmarkWorker pid=252851)[0m     %30 = tt.load %29 : !tt.ptr<i32>
[2m[36m(pid=252851) [0m:  20%|██        | 392/1.92k [05:03<22:14, 1.14it/s]                                                                 [36m(BenchmarkWorker pid=252851)[0m     %31 = arith.extsi %30 : i32 to i64
[2m[36m(pid=252851) [0m:  20%|██        | 392/1.92k [05:03<22:14, 1.14it/s]                                                                 [36m(BenchmarkWorker pid=252851)[0m     %32 = arith.cmpi eq, %31, %c-1_i64 : i64
[2m[36m(pid=252851) [0m:  20%|██        | 392/1.92k [05:03<22:14, 1.14it/s]                                                                 [36m(BenchmarkWorker pid=252851)[0m     cf.cond_br %32, ^bb3, ^bb4
[2m[36m(pid=252851) [0m:  20%|██        | 392/1.92k [05:03<22:14, 1.14it/s]                                                                 [36m(BenchmarkWorker pid=252851)[0m   ^bb3:  // pred: ^bb2
[2m[36m(pid=252851) [0m:  20%|██        | 392/1.92k [05:03<22:14, 1.14it/s]                                                                 [36m(BenchmarkWorker pid=252851)[0m     %33 = arith.muli %13, %c64_i32 : i32
[2m[36m(pid=252851) [0m:  20%|██        | 392/1.92k [05:03<22:14, 1.14it/s]                                                                 [36m(BenchmarkWorker pid=252851)[0m     %34 = tt.make_range {end = 64 : i32, start = 0 : i32} : tensor<64xi32>
[2m[36m(pid=252851) [0m:  20%|██        | 392/1.92k [05:03<22:14, 1.14it/s]                                                                 [36m(BenchmarkWorker pid=252851)[0m     %35 = tt.splat %33 : i32 -> tensor<64xi32>
[2m[36m(pid=252851) [0m:  20%|██        | 392/1.92k [05:03<22:14, 1.14it/s]                                                                 [36m(BenchmarkWorker pid=252851)[0m     %36 = arith.addi %35, %34 : tensor<64xi32>
[2m[36m(pid=252851) [0m:  20%|██        | 392/1.92k [05:03<22:14, 1.14it/s]                                                                 [36m(BenchmarkWorker pid=252851)[0m     %37 = tt.expand_dims %25 {axis = 1 : i32} : tensor<256xi64> -> tensor<256x1xi64>
[2m[36m(pid=252851) [0m:  20%|██        | 392/1.92k [05:03<22:14, 1.14it/s]                                                                 [36m(BenchmarkWorker pid=252851)[0m     %38 = arith.extsi %arg16 : i32 to i64
[2m[36m(pid=252851) [0m:  20%|██        | 392/1.92k [05:03<22:14, 1.14it/s]                                                                 [36m(BenchmarkWorker pid=252851)[0m     %39 = tt.splat %38 : i64 -> tensor<256x1xi64>
[2m[36m(pid=252851) [0m:  20%|██        | 392/1.92k [05:03<22:14, 1.14it/s]                                                                 [36m(BenchmarkWorker pid=252851)[0m     %40 = arith.muli %39, %37 : tensor<256x1xi64>
[2m[36m(pid=252851) [0m:  20%|██        | 392/1.92k [05:03<22:14, 1.14it/s]                                                                 [36m(BenchmarkWorker pid=252851)[0m     %41 = tt.splat %arg2 : !tt.ptr<bf16> -> tensor<256x1x!tt.ptr<bf16>>
[2m[36m(pid=252851) [0m:  20%|██        | 392/1.92k [05:03<22:14, 1.14it/s]                                                                 [36m(BenchmarkWorker pid=252851)[0m     %42 = tt.addptr %41, %40 : tensor<256x1x!tt.ptr<bf16>>, tensor<256x1xi64>
[2m[36m(pid=252851) [0m:  20%|██        | 392/1.92k [05:03<22:14, 1.14it/s]                                                                 [36m(BenchmarkWorker pid=252851)[0m     %43 = tt.expand_dims %36 {axis = 0 : i32} : tensor<64xi32> -> tensor<1x64xi32>
[2m[36m(pid=252851) [0m:  20%|██        | 392/1.92k [05:03<22:14, 1.14it/s]                                                                 [36m(BenchmarkWorker pid=252851)[0m     %44 = tt.broadcast %42 : tensor<256x1x!tt.ptr<bf16>> -> tensor<256x64x!tt.ptr<bf16>>
[2m[36m(pid=252851) [0m:  20%|██        | 392/1.92k [05:03<22:14, 1.14it/s]                                                                 [36m(BenchmarkWorker pid=252851)[0m     %45 = tt.broadcast %43 : tensor<1x64xi32> -> tensor<256x64xi32>
[2m[36m(pid=252851) [0m:  20%|██        | 392/1.92k [05:03<22:14, 1.14it/s]                                                                 [36m(BenchmarkWorker pid=252851)[0m     %46 = tt.addptr %44, %45 : tensor<256x64x!tt.ptr<bf16>>, tensor<256x64xi32>
[2m[36m(pid=252851) [0m:  20%|██        | 392/1.92k [05:03<22:14, 1.14it/s]                                                                 [36m(BenchmarkWorker pid=252851)[0m     %47 = tt.expand_dims %28 {axis = 1 : i32} : tensor<256xi1> -> tensor<256x1xi1>
[2m[36m(pid=252851) [0m:  20%|██        | 392/1.92k [05:03<22:14, 1.14it/s]                                                                 [36m(BenchmarkWorker pid=252851)[0m     %48 = tt.splat %arg7 : i32 -> tensor<1x64xi32>
[2m[36m(pid=252851) [0m:  20%|██        | 392/1.92k [05:03<22:14, 1.14it/s]                                                                 [36m(BenchmarkWorker pid=252851)[0m     %49 = arith.cmpi slt, %43, %48 : tensor<1x64xi32>
[2m[36m(pid=252851) [0m:  20%|██        | 392/1.92k [05:03<22:14, 1.14it/s]                                                                 [36m(BenchmarkWorker pid=252851)[0m     %50 = tt.broadcast %47 : tensor<256x1xi1> -> tensor<256x64xi1>
[2m[36m(pid=252851) [0m:  20%|██        | 392/1.92k [05:03<22:14, 1.14it/s]                                                                 [36m(BenchmarkWorker pid=252851)[0m     %51 = tt.broadcast %49 : tensor<1x64xi1> -> tensor<256x64xi1>
[2m[36m(pid=252851) [0m:  20%|██        | 392/1.92k [05:03<22:14, 1.14it/s]                                                                 [36m(BenchmarkWorker pid=252851)[0m     %52 = arith.andi %50, %51 : tensor<256x64xi1>
[2m[36m(pid=252851) [0m:  20%|██        | 392/1.92k [05:03<22:14, 1.14it/s]                                                                 [36m(BenchmarkWorker pid=252851)[0m     tt.store %46, %cst, %52 : tensor<256x64x!tt.ptr<bf16>>
[2m[36m(pid=252851) [0m:  20%|██        | 392/1.92k [05:03<22:14, 1.14it/s]                                                                 [36m(BenchmarkWorker pid=252851)[0m     tt.return
[2m[36m(pid=252851) [0m:  20%|██        | 392/1.92k [05:03<22:14, 1.14it/s]                                                                 [36m(BenchmarkWorker pid=252851)[0m   ^bb4:  // pred: ^bb2
[2m[36m(pid=252851) [0m:  20%|██        | 392/1.92k [05:03<22:14, 1.14it/s]                                                                 [36m(BenchmarkWorker pid=252851)[0m     %53 = arith.muli %13, %c64_i32 : i32
[2m[36m(pid=252851) [0m:  20%|██        | 392/1.92k [05:03<22:14, 1.14it/s]                                                                 [36m(BenchmarkWorker pid=252851)[0m     %54 = tt.make_range {end = 64 : i32, start = 0 : i32} : tensor<64xi32>
[2m[36m(pid=252851) [0m:  20%|██        | 392/1.92k [05:03<22:14, 1.14it/s]                                                                 [36m(BenchmarkWorker pid=252851)[0m     %55 = arith.extsi %54 : tensor<64xi32> to tensor<64xi64>
[2m[36m(pid=252851) [0m:  20%|██        | 392/1.92k [05:03<22:14, 1.14it/s]                                                                 [36m(BenchmarkWorker pid=252851)[0m     %56 = arith.extsi %53 : i32 to i64
[2m[36m(pid=252851) [0m:  20%|██        | 392/1.92k [05:03<22:14, 1.14it/s]                                                                 [36m(BenchmarkWorker pid=252851)[0m     %57 = tt.splat %56 : i64 -> tensor<64xi64>
[2m[36m(pid=252851) [0m:  20%|██        | 392/1.92k [05:03<22:14, 1.14it/s]                                                                 [36m(BenchmarkWorker pid=252851)[0m     %58 = arith.addi %57, %55 : tensor<64xi64>
[2m[36m(pid=252851) [0m:  20%|██        | 392/1.92k [05:03<22:14, 1.14it/s]                                                                 [36m(BenchmarkWorker pid=252851)[0m     %59 = arith.extsi %arg7 : i32 to i64
[2m[36m(pid=252851) [0m:  20%|██        | 392/1.92k [05:03<22:14, 1.14it/s]                                                                 [36m(BenchmarkWorker pid=252851)[0m     %60 = tt.splat %59 : i64 -> tensor<64xi64>
[2m[36m(pid=252851) [0m:  20%|██        | 392/1.92k [05:03<22:14, 1.14it/s]                                                                 [36m(BenchmarkWorker pid=252851)[0m     %61 = arith.remsi %58, %60 : tensor<64xi64>
[2m[36m(pid=252851) [0m:  20%|██        | 392/1.92k [05:03<22:14, 1.14it/s]                                                                 [36m(BenchmarkWorker pid=252851)[0m     %62 = tt.expand_dims %25 {axis = 1 : i32} : tensor<256xi64> -> tensor<256x1xi64>
[2m[36m(pid=252851) [0m:  20%|██        | 392/1.92k [05:03<22:14, 1.14it/s]                                                                 [36m(BenchmarkWorker pid=252851)[0m     %63 = arith.divsi %62, %cst_3 : tensor<256x1xi64>
[2m[36m(pid=252851) [0m:  20%|██        | 392/1.92k [05:03<22:14, 1.14it/s]                                                                 [36m(BenchmarkWorker pid=252851)[0m     %64 = arith.extsi %arg11 : i32 to i64
[2m[36m(pid=252851) [0m:  20%|██        | 392/1.92k [05:03<22:14, 1.14it/s]                                                                 [36m(BenchmarkWorker pid=252851)[0m     %65 = tt.splat %64 : i64 -> tensor<256x1xi64>
[2m[36m(pid=252851) [0m:  20%|██        | 392/1.92k [05:03<22:14, 1.14it/s]                                                                 [36m(BenchmarkWorker pid=252851)[0m     %66 = arith.muli %63, %65 : tensor<256x1xi64>
[2m[36m(pid=252851) [0m:  20%|██        | 392/1.92k [05:03<22:14, 1.14it/s]                                                                 [36m(BenchmarkWorker pid=252851)[0m     %67 = tt.expand_dims %54 {axis = 0 : i32} : tensor<64xi32> -> tensor<1x64xi32>
[2m[36m(pid=252851) [0m:  20%|██        | 392/1.92k [05:03<22:14, 1.14it/s]                                                                 [36m(BenchmarkWorker pid=252851)[0m     %68 = arith.extsi %67 : tensor<1x64xi32> to tensor<1x64xi64>
[2m[36m(pid=252851) [0m:  20%|██        | 392/1.92k [05:03<22:14, 1.14it/s]                                                                 [36m(BenchmarkWorker pid=252851)[0m     %69 = tt.broadcast %66 : tensor<256x1xi64> -> tensor<256x64xi64>
[2m[36m(pid=252851) [0m:  20%|██        | 392/1.92k [05:03<22:14, 1.14it/s]                                                                 [36m(BenchmarkWorker pid=252851)[0m     %70 = tt.broadcast %68 : tensor<1x64xi64> -> tensor<256x64xi64>
[2m[36m(pid=252851) [0m:  20%|██        | 392/1.92k [05:03<22:14, 1.14it/s]                                                                 [36m(BenchmarkWorker pid=252851)[0m     %71 = arith.addi %69, %70 : tensor<256x64xi64>
[2m[36m(pid=252851) [0m:  20%|██        | 392/1.92k [05:03<22:14, 1.14it/s]                                                                 [36m(BenchmarkWorker pid=252851)[0m     %72 = tt.splat %arg0 : !tt.ptr<bf16> -> tensor<256x64x!tt.ptr<bf16>>
[2m[36m(pid=252851) [0m:  20%|██        | 392/1.92k [05:03<22:14, 1.14it/s]                                                                 [36m(BenchmarkWorker pid=252851)[0m     %73 = tt.addptr %72, %71 : tensor<256x64x!tt.ptr<bf16>>, tensor<256x64xi64>
[2m[36m(pid=252851) [0m:  20%|██        | 392/1.92k [05:03<22:14, 1.14it/s]                                                                 [36m(BenchmarkWorker pid=252851)[0m     %74 = arith.extsi %arg12 : i32 to i64
[2m[36m(pid=252851) [0m:  20%|██        | 392/1.92k [05:03<22:14, 1.14it/s]                                                                 [36m(BenchmarkWorker pid=252851)[0m     %75 = arith.muli %31, %74 : i64
[2m[36m(pid=252851) [0m:  20%|██        | 392/1.92k [05:03<22:14, 1.14it/s]                                                                 [36m(BenchmarkWorker pid=252851)[0m     %76 = tt.addptr %arg1, %75 : !tt.ptr<bf16>, i64
[2m[36m(pid=252851) [0m:  20%|██        | 392/1.92k [05:03<22:14, 1.14it/s]                                                                 [36m(BenchmarkWorker pid=252851)[0m     %77 = tt.expand_dims %54 {axis = 1 : i32} : tensor<64xi32> -> tensor<64x1xi32>
[2m[36m(pid=252851) [0m:  20%|██        | 392/1.92k [05:03<22:14, 1.14it/s]                                                                 [36m(BenchmarkWorker pid=252851)[0m     %78 = tt.expand_dims %61 {axis = 0 : i32} : tensor<64xi64> -> tensor<1x64xi64>
[2m[36m(pid=252851) [0m:  20%|██        | 392/1.92k [05:03<22:14, 1.14it/s]                                                                 [36m(BenchmarkWorker pid=252851)[0m     %79 = arith.extsi %arg13 : i32 to i64
[2m[36m(pid=252851) [0m:  20%|██        | 392/1.92k [05:03<22:14, 1.14it/s]                                                                 [36m(BenchmarkWorker pid=252851)[0m     %80 = tt.splat %79 : i64 -> tensor<1x64xi64>
[2m[36m(pid=252851) [0m:  20%|██        | 392/1.92k [05:03<22:14, 1.14it/s]                                                                 [36m(BenchmarkWorker pid=252851)[0m     %81 = arith.muli %78, %80 : tensor<1x64xi64>
[2m[36m(pid=252851) [0m:  20%|██        | 392/1.92k [05:03<22:14, 1.14it/s]                                                                 [36m(BenchmarkWorker pid=252851)[0m     %82 = arith.extsi %77 : tensor<64x1xi32> to tensor<64x1xi64>
[2m[36m(pid=252851) [0m:  20%|██        | 392/1.92k [05:03<22:14, 1.14it/s]                                                                 [36m(BenchmarkWorker pid=252851)[0m     %83 = tt.broadcast %82 : tensor<64x1xi64> -> tensor<64x64xi64>
[2m[36m(pid=252851) [0m:  20%|██        | 392/1.92k [05:03<22:14, 1.14it/s]                                                                 [36m(BenchmarkWorker pid=252851)[0m     %84 = tt.broadcast %81 : tensor<1x64xi64> -> tensor<64x64xi64>
[2m[36m(pid=252851) [0m:  20%|██        | 392/1.92k [05:03<22:14, 1.14it/s]                                                                 [36m(BenchmarkWorker pid=252851)[0m     %85 = arith.addi %83, %84 : tensor<64x64xi64>
[2m[36m(pid=252851) [0m:  20%|██        | 392/1.92k [05:03<22:14, 1.14it/s]                                                                 [36m(BenchmarkWorker pid=252851)[0m     %86 = tt.splat %76 : !tt.ptr<bf16> -> tensor<64x64x!tt.ptr<bf16>>
[2m[36m(pid=252851) [0m:  20%|██        | 392/1.92k [05:03<22:14, 1.14it/s]                                                                 [36m(BenchmarkWorker pid=252851)[0m     %87 = tt.addptr %86, %85 : tensor<64x64x!tt.ptr<bf16>>, tensor<64x64xi64>
[2m[36m(pid=252851) [0m:  20%|██        | 392/1.92k [05:03<22:14, 1.14it/s]                                                                 [36m(BenchmarkWorker pid=252851)[0m     %88:3 = scf.for %arg22 = %c0_i32 to %arg8 step %c64_i32 iter_args(%arg23 = %73, %arg24 = %87, %arg25 = %cst_2) -> (tensor<256x64x!tt.ptr<bf16>>, tensor<64x64x!tt.ptr<bf16>>, tensor<256x64xf32>)  : i32 {
[2m[36m(pid=252851) [0m:  20%|██        | 392/1.92k [05:03<22:14, 1.14it/s]                                                                 [36m(BenchmarkWorker pid=252851)[0m       %107 = tt.expand_dims %28 {axis = 1 : i32} : tensor<256xi1> -> tensor<256x1xi1>
[2m[36m(pid=252851) [0m:  20%|██        | 392/1.92k [05:03<22:14, 1.14it/s]                                                                 [36m(BenchmarkWorker pid=252851)[0m       %108 = tt.broadcast %107 : tensor<256x1xi1> -> tensor<256x64xi1>
[2m[36m(pid=252851) [0m:  20%|██        | 392/1.92k [05:03<22:14, 1.14it/s]                                                                 [36m(BenchmarkWorker pid=252851)[0m       %109 = tt.load %arg23, %108, %cst : tensor<256x64x!tt.ptr<bf16>>
[2m[36m(pid=252851) [0m:  20%|██        | 392/1.92k [05:03<22:14, 1.14it/s]                                                                 [36m(BenchmarkWorker pid=252851)[0m       %110 = tt.load %arg24 : tensor<64x64x!tt.ptr<bf16>>
[2m[36m(pid=252851) [0m:  20%|██        | 392/1.92k [05:03<22:14, 1.14it/s]                                                                 [36m(BenchmarkWorker pid=252851)[0m       %111 = tt.dot %109, %110, %arg25, inputPrecision = tf32 : tensor<256x64xbf16> * tensor<64x64xbf16> -> tensor<256x64xf32>
[2m[36m(pid=252851) [0m:  20%|██        | 392/1.92k [05:03<22:14, 1.14it/s]                                                                 [36m(BenchmarkWorker pid=252851)[0m       %112 = tt.addptr %arg23, %cst_1 : tensor<256x64x!tt.ptr<bf16>>, tensor<256x64xi32>
[2m[36m(pid=252851) [0m:  20%|██        | 392/1.92k [05:03<22:14, 1.14it/s]                                                                 [36m(BenchmarkWorker pid=252851)[0m       %113 = tt.addptr %arg24, %cst_0 : tensor<64x64x!tt.ptr<bf16>>, tensor<64x64xi32>
[2m[36m(pid=252851) [0m:  20%|██        | 392/1.92k [05:03<22:14, 1.14it/s]                                                                 [36m(BenchmarkWorker pid=252851)[0m       scf.yield %112, %113, %111 : tensor<256x64x!tt.ptr<bf16>>, tensor<64x64x!tt.ptr<bf16>>, tensor<256x64xf32>
[2m[36m(pid=252851) [0m:  20%|██        | 392/1.92k [05:03<22:14, 1.14it/s]                                                                 [36m(BenchmarkWorker pid=252851)[0m     }
[2m[36m(pid=252851) [0m:  20%|██        | 392/1.92k [05:03<22:14, 1.14it/s]                                                                 [36m(BenchmarkWorker pid=252851)[0m     %89 = arith.truncf %88#2 : tensor<256x64xf32> to tensor<256x64xbf16>
[2m[36m(pid=252851) [0m:  20%|██        | 392/1.92k [05:03<22:14, 1.14it/s]                                                                 [36m(BenchmarkWorker pid=252851)[0m     %90 = tt.splat %53 : i32 -> tensor<64xi32>
[2m[36m(pid=252851) [0m:  20%|██        | 392/1.92k [05:03<22:14, 1.14it/s]                                                                 [36m(BenchmarkWorker pid=252851)[0m     %91 = arith.addi %90, %54 : tensor<64xi32>
[2m[36m(pid=252851) [0m:  20%|██        | 392/1.92k [05:03<22:14, 1.14it/s]                                                                 [36m(BenchmarkWorker pid=252851)[0m     %92 = arith.extsi %arg16 : i32 to i64
[2m[36m(pid=252851) [0m:  20%|██        | 392/1.92k [05:03<22:14, 1.14it/s]                                                                 [36m(BenchmarkWorker pid=252851)[0m     %93 = tt.splat %92 : i64 -> tensor<256x1xi64>
[2m[36m(pid=252851) [0m:  20%|██        | 392/1.92k [05:03<22:14, 1.14it/s]                                                                 [36m(BenchmarkWorker pid=252851)[0m     %94 = arith.muli %93, %62 : tensor<256x1xi64>
[2m[36m(pid=252851) [0m:  20%|██        | 392/1.92k [05:03<22:14, 1.14it/s]                                                                 [36m(BenchmarkWorker pid=252851)[0m     %95 = tt.splat %arg2 : !tt.ptr<bf16> -> tensor<256x1x!tt.ptr<bf16>>
[2m[36m(pid=252851) [0m:  20%|██        | 392/1.92k [05:03<22:14, 1.14it/s]                                                                 [36m(BenchmarkWorker pid=252851)[0m     %96 = tt.addptr %95, %94 : tensor<256x1x!tt.ptr<bf16>>, tensor<256x1xi64>
[2m[36m(pid=252851) [0m:  20%|██        | 392/1.92k [05:03<22:14, 1.14it/s]                                                                 [36m(BenchmarkWorker pid=252851)[0m     %97 = tt.expand_dims %91 {axis = 0 : i32} : tensor<64xi32> -> tensor<1x64xi32>
[2m[36m(pid=252851) [0m:  20%|██        | 392/1.92k [05:03<22:14, 1.14it/s]                                                                 [36m(BenchmarkWorker pid=252851)[0m     %98 = tt.broadcast %96 : tensor<256x1x!tt.ptr<bf16>> -> tensor<256x64x!tt.ptr<bf16>>
[2m[36m(pid=252851) [0m:  20%|██        | 392/1.92k [05:03<22:14, 1.14it/s]                                                                 [36m(BenchmarkWorker pid=252851)[0m     %99 = tt.broadcast %97 : tensor<1x64xi32> -> tensor<256x64xi32>
[2m[36m(pid=252851) [0m:  20%|██        | 392/1.92k [05:03<22:14, 1.14it/s]                                                                 [36m(BenchmarkWorker pid=252851)[0m     %100 = tt.addptr %98, %99 : tensor<256x64x!tt.ptr<bf16>>, tensor<256x64xi32>
[2m[36m(pid=252851) [0m:  20%|██        | 392/1.92k [05:03<22:14, 1.14it/s]                                                                 [36m(BenchmarkWorker pid=252851)[0m     %101 = tt.expand_dims %28 {axis = 1 : i32} : tensor<256xi1> -> tensor<256x1xi1>
[2m[36m(pid=252851) [0m:  20%|██        | 392/1.92k [05:03<22:14, 1.14it/s]                                                                 [36m(BenchmarkWorker pid=252851)[0m     %102 = tt.splat %arg7 : i32 -> tensor<1x64xi32>
[2m[36m(pid=252851) [0m:  20%|██        | 392/1.92k [05:03<22:14, 1.14it/s]                                                                 [36m(BenchmarkWorker pid=252851)[0m     %103 = arith.cmpi slt, %97, %102 : tensor<1x64xi32>
[2m[36m(pid=252851) [0m:  20%|██        | 392/1.92k [05:03<22:14, 1.14it/s]                                                                 [36m(BenchmarkWorker pid=252851)[0m     %104 = tt.broadcast %101 : tensor<256x1xi1> -> tensor<256x64xi1>
[2m[36m(pid=252851) [0m:  20%|██        | 392/1.92k [05:03<22:14, 1.14it/s]                                                                 [36m(BenchmarkWorker pid=252851)[0m     %105 = tt.broadcast %103 : tensor<1x64xi1> -> tensor<256x64xi1>
[2m[36m(pid=252851) [0m:  20%|██        | 392/1.92k [05:03<22:14, 1.14it/s]                                                                 [36m(BenchmarkWorker pid=252851)[0m     %106 = arith.andi %104, %105 : tensor<256x64xi1>
[2m[36m(pid=252851) [0m:  20%|██        | 392/1.92k [05:03<22:14, 1.14it/s]                                                                 [36m(BenchmarkWorker pid=252851)[0m     tt.store %100, %89, %106 : tensor<256x64x!tt.ptr<bf16>>
[2m[36m(pid=252851) [0m:  20%|██        | 392/1.92k [05:03<22:14, 1.14it/s]                                                                 [36m(BenchmarkWorker pid=252851)[0m     tt.return
[2m[36m(pid=252851) [0m:  20%|██        | 392/1.92k [05:03<22:14, 1.14it/s]                                                                 [36m(BenchmarkWorker pid=252851)[0m   }
[2m[36m(pid=252851) [0m:  20%|██        | 392/1.92k [05:03<22:14, 1.14it/s]                                                                 [36m(BenchmarkWorker pid=252851)[0m }
[2m[36m(pid=252851) [0m:  20%|██        | 392/1.92k [05:03<22:14, 1.14it/s]                                                                 [36m(BenchmarkWorker pid=252851)[0m 
[2m[36m(pid=252851) [0m:  20%|██        | 392/1.92k [05:03<22:14, 1.14it/s]                                                                 [36m(BenchmarkWorker pid=252851)[0m {-#
[2m[36m(pid=252851) [0m:  20%|██        | 392/1.92k [05:03<22:14, 1.14it/s]                                                                 [36m(BenchmarkWorker pid=252851)[0m   external_resources: {
[2m[36m(pid=252851) [0m:  20%|██        | 392/1.92k [05:03<22:14, 1.14it/s]                                                                 [36m(BenchmarkWorker pid=252851)[0m     mlir_reproducer: {
[2m[36m(pid=252851) [0m:  20%|██        | 392/1.92k [05:03<22:14, 1.14it/s]                                                                 [36m(BenchmarkWorker pid=252851)[0m       pipeline: "builtin.module(convert-triton-to-tritongpu{enable-source-remat=false num-ctas=1 num-warps=4 target=cuda:90 threads-per-warp=32}, tritongpu-coalesce, tritongpu-F32DotTC, triton-nvidia-gpu-plan-cta, tritongpu-remove-layout-conversions, tritongpu-optimize-thread-locality, tritongpu-accelerate-matmul, tritongpu-remove-layout-conversions, tritongpu-optimize-dot-operands{hoist-layout-conversion=true}, triton-nvidia-optimize-descriptor-encoding, triton-loop-aware-cse, tritongpu-fuse-nested-loops, canonicalize{  max-iterations=10 max-num-rewrites=-1 region-simplify=normal test-convergence=false top-down=true}, triton-licm, canonicalize{  max-iterations=10 max-num-rewrites=-1 region-simplify=normal test-convergence=false top-down=true}, tritongpu-combine-tensor-select-and-if, nvgpu-warp-specialization{dump-intermediate-steps=false num-stages=2}, tritongpu-assign-latencies{num-stages=2}, tritongpu-schedule-loops, tritongpu-pipeline{dump-intermediate-steps=false num-stages=2}, canonicalize{  max-iterations=10 max-num-rewrites=-1 region-simplify=normal test-convergence=false top-down=true}, triton-loop-aware-cse, tritongpu-prefetch, tritongpu-optimize-dot-operands{hoist-layout-conversion=true}, tritongpu-coalesce-async-copy, triton-nvidia-optimize-tmem-layouts, tritongpu-remove-layout-conversions, triton-nvidia-interleave-tmem, tritongpu-reduce-data-duplication, tritongpu-reorder-instructions, triton-loop-aware-cse, symbol-dce, triton-nvidia-tma-lowering, triton-nvidia-gpu-fence-insertion{compute-capability=90}, triton-nvidia-mma-lowering, sccp, cse, canonicalize{  max-iterations=10 max-num-rewrites=-1 region-simplify=normal test-convergence=false top-down=true})",
[2m[36m(pid=252851) [0m:  20%|██        | 392/1.92k [05:03<22:14, 1.14it/s]                                                                 [36m(BenchmarkWorker pid=252851)[0m       disable_threading: false,
[2m[36m(pid=252851) [0m:  20%|██        | 392/1.92k [05:03<22:14, 1.14it/s]                                                                 [36m(BenchmarkWorker pid=252851)[0m       verify_each: true
[2m[36m(pid=252851) [0m:  20%|██        | 392/1.92k [05:03<22:14, 1.14it/s]                                                                 [36m(BenchmarkWorker pid=252851)[0m     }
[2m[36m(pid=252851) [0m:  20%|██        | 392/1.92k [05:03<22:14, 1.14it/s]                                                                 [36m(BenchmarkWorker pid=252851)[0m   }
[2m[36m(pid=252851) [0m:  20%|██        | 392/1.92k [05:03<22:14, 1.14it/s]                                                                 [36m(BenchmarkWorker pid=252851)[0m #-}
[2m[36m(pid=252851) [0m:  20%|██        | 392/1.92k [05:03<22:14, 1.14it/s]                                                                 [36m(BenchmarkWorker pid=252851)[0m /home/t-jialianggu/work/sglang/python/sglang/srt/layers/moe/fused_moe_triton/fused_moe_triton_kernels.py:324:0: error: Failures have been detected while processing an MLIR pass pipeline
[2m[36m(pid=252851) [0m:  20%|██        | 392/1.92k [05:03<22:14, 1.14it/s]                                                                 [36m(BenchmarkWorker pid=252851)[0m /home/t-jialianggu/work/sglang/python/sglang/srt/layers/moe/fused_moe_triton/fused_moe_triton_kernels.py:324:0: note: Pipeline failed while executing [`TritonGPURemoveLayoutConversions` on 'builtin.module' operation]: reproducer generated at `std::errs, please share the reproducer above with Triton project.`
[2m[36m(pid=252851) [0m:  20%|██        | 392/1.92k [05:03<22:14, 1.14it/s]                                                                 [36m(BenchmarkWorker pid=252851)[0m /home/t-jialianggu/work/sglang/python/sglang/srt/layers/moe/fused_moe_triton/fused_moe_triton_kernels.py:610:24: error: operand #0 does not dominate this use
[2m[36m(pid=252851) [0m:  20%|██        | 392/1.92k [05:03<22:14, 1.14it/s]                                                                 [36m(BenchmarkWorker pid=252851)[0m     c_mask = token_mask[:, None] & (offs_cn[None, :] < N)
[2m[36m(pid=252851) [0m:  20%|██        | 392/1.92k [05:03<22:14, 1.14it/s]                                                                 [36m(BenchmarkWorker pid=252851)[0m                        ^
[2m[36m(pid=252851) [0m:  20%|██        | 392/1.92k [05:03<22:14, 1.14it/s]                                                                 [36m(BenchmarkWorker pid=252851)[0m /home/t-jialianggu/work/sglang/python/sglang/srt/layers/moe/fused_moe_triton/fused_moe_triton_kernels.py:531:32: note: operand defined here (op in a child region)
[2m[36m(pid=252851) [0m:  20%|██        | 392/1.92k [05:03<22:14, 1.14it/s]                                                                 [36m(BenchmarkWorker pid=252851)[0m                 mask=token_mask[:, None],
[2m[36m(pid=252851) [0m:  20%|██        | 392/1.92k [05:03<22:14, 1.14it/s]                                                                 [36m(BenchmarkWorker pid=252851)[0m                                ^
[2m[36m(pid=252851) [0m:  20%|██        | 392/1.92k [05:03<22:14, 1.14it/s]                                                                 [36m(BenchmarkWorker pid=252851)[0m module {
[2m[36m(pid=252851) [0m:  20%|██        | 392/1.92k [05:03<22:14, 1.14it/s]                                                                 [36m(BenchmarkWorker pid=252851)[0m   tt.func public @fused_moe_kernel(%arg0: !tt.ptr<bf16> {tt.divisibility = 16 : i32}, %arg1: !tt.ptr<bf16> {tt.divisibility = 16 : i32}, %arg2: !tt.ptr<bf16> {tt.divisibility = 16 : i32}, %arg3: !tt.ptr<f32> {tt.divisibility = 16 : i32}, %arg4: !tt.ptr<i32> {tt.divisibility = 16 : i32}, %arg5: !tt.ptr<i32> {tt.divisibility = 16 : i32}, %arg6: !tt.ptr<i32> {tt.divisibility = 16 : i32}, %arg7: i32 {tt.divisibility = 16 : i32}, %arg8: i32 {tt.divisibility = 16 : i32}, %arg9: i32, %arg10: i32 {tt.divisibility = 16 : i32}, %arg11: i32 {tt.divisibility = 16 : i32}, %arg12: i32 {tt.divisibility = 16 : i32}, %arg13: i32 {tt.divisibility = 16 : i32}, %arg14: i32 {tt.divisibility = 16 : i32}, %arg15: i32 {tt.divisibility = 16 : i32}, %arg16: i32 {tt.divisibility = 16 : i32}, %arg17: i32 {tt.divisibility = 16 : i32}, %arg18: i32 {tt.divisibility = 16 : i32}, %arg19: i32 {tt.divisibility = 16 : i32}, %arg20: i32 {tt.divisibility = 16 : i32}, %arg21: i32 {tt.divisibility = 16 : i32}) attributes {noinline = false} {
[2m[36m(pid=252851) [0m:  20%|██        | 392/1.92k [05:03<22:14, 1.14it/s]                                                                 [36m(BenchmarkWorker pid=252851)[0m     %c63_i32 = arith.constant 63 : i32
[2m[36m(pid=252851) [0m:  20%|██        | 392/1.92k [05:03<22:14, 1.14it/s]                                                                 [36m(BenchmarkWorker pid=252851)[0m     %c255_i32 = arith.constant 255 : i32
[2m[36m(pid=252851) [0m:  20%|██        | 392/1.92k [05:03<22:14, 1.14it/s]                                                                 [36m(BenchmarkWorker pid=252851)[0m     %cst = arith.constant dense<0.000000e+00> : tensor<256x64xbf16>
[2m[36m(pid=252851) [0m:  20%|██        | 392/1.92k [05:03<22:14, 1.14it/s]                                                                 [36m(BenchmarkWorker pid=252851)[0m     %c0_i32 = arith.constant 0 : i32
[2m[36m(pid=252851) [0m:  20%|██        | 392/1.92k [05:03<22:14, 1.14it/s]                                                                 [36m(BenchmarkWorker pid=252851)[0m     %c-1_i64 = arith.constant -1 : i64
[2m[36m(pid=252851) [0m:  20%|██        | 392/1.92k [05:03<22:14, 1.14it/s]                                                                 [36m(BenchmarkWorker pid=252851)[0m     %cst_0 = arith.constant dense<64> : tensor<64x64xi32>
[2m[36m(pid=252851) [0m:  20%|██        | 392/1.92k [05:03<22:14, 1.14it/s]                                                                 [36m(BenchmarkWorker pid=252851)[0m     %cst_1 = arith.constant dense<64> : tensor<256x64xi32>
[2m[36m(pid=252851) [0m:  20%|██        | 392/1.92k [05:03<22:14, 1.14it/s]                                                                 [36m(BenchmarkWorker pid=252851)[0m     %cst_2 = arith.constant dense<0.000000e+00> : tensor<256x64xf32>
[2m[36m(pid=252851) [0m:  20%|██        | 392/1.92k [05:03<22:14, 1.14it/s]                                                                 [36m(BenchmarkWorker pid=252851)[0m     %cst_3 = arith.constant dense<8> : tensor<256x1xi64>
[2m[36m(pid=252851) [0m:  20%|██        | 392/1.92k [05:03<22:14, 1.14it/s]                                                                 [36m(BenchmarkWorker pid=252851)[0m     %c64_i32 = arith.constant 64 : i32
[2m[36m(pid=252851) [0m:  20%|██        | 392/1.92k [05:03<22:14, 1.14it/s]                                                                 [36m(BenchmarkWorker pid=252851)[0m     %c256_i32 = arith.constant 256 : i32
[2m[36m(pid=252851) [0m:  20%|██        | 392/1.92k [05:03<22:14, 1.14it/s]                                                                 [36m(BenchmarkWorker pid=252851)[0m     %c32_i32 = arith.constant 32 : i32
[2m[36m(pid=252851) [0m:  20%|██        | 392/1.92k [05:03<22:14, 1.14it/s]                                                                 [36m(BenchmarkWorker pid=252851)[0m     %0 = tt.get_program_id x : i32
[2m[36m(pid=252851) [0m:  20%|██        | 392/1.92k [05:03<22:14, 1.14it/s]                                                                 [36m(BenchmarkWorker pid=252851)[0m     %1 = arith.addi %arg9, %c255_i32 : i32
[2m[36m(pid=252851) [0m:  20%|██        | 392/1.92k [05:03<22:14, 1.14it/s]                                                                 [36m(BenchmarkWorker pid=252851)[0m     %2 = arith.divsi %1, %c256_i32 : i32
[2m[36m(pid=252851) [0m:  20%|██        | 392/1.92k [05:03<22:14, 1.14it/s]                                                                 [36m(BenchmarkWorker pid=252851)[0m     %3 = arith.addi %arg7, %c63_i32 : i32
[2m[36m(pid=252851) [0m:  20%|██        | 392/1.92k [05:03<22:14, 1.14it/s]                                                                 [36m(BenchmarkWorker pid=252851)[0m     %4 = arith.divsi %3, %c64_i32 : i32
[2m[36m(pid=252851) [0m:  20%|██        | 392/1.92k [05:03<22:14, 1.14it/s]                                                                 [36m(BenchmarkWorker pid=252851)[0m     %5 = arith.muli %4, %c32_i32 : i32
[2m[36m(pid=252851) [0m:  20%|██        | 392/1.92k [05:03<22:14, 1.14it/s]                                                                 [36m(BenchmarkWorker pid=252851)[0m     %6 = arith.divsi %0, %5 : i32
[2m[36m(pid=252851) [0m:  20%|██        | 392/1.92k [05:03<22:14, 1.14it/s]                                                                 [36m(BenchmarkWorker pid=252851)[0m     %7 = arith.muli %6, %c32_i32 : i32
[2m[36m(pid=252851) [0m:  20%|██        | 392/1.92k [05:03<22:14, 1.14it/s]                                                                 [36m(BenchmarkWorker pid=252851)[0m     %8 = arith.subi %2, %7 : i32
[2m[36m(pid=252851) [0m:  20%|██        | 392/1.92k [05:03<22:14, 1.14it/s]                                                                 [36m(BenchmarkWorker pid=252851)[0m     %9 = arith.minsi %8, %c32_i32 : i32
[2m[36m(pid=252851) [0m:  20%|██        | 392/1.92k [05:03<22:14, 1.14it/s]                                                                 [36m(BenchmarkWorker pid=252851)[0m     %10 = arith.remsi %0, %5 : i32
[2m[36m(pid=252851) [0m:  20%|██        | 392/1.92k [05:03<22:14, 1.14it/s]                                                                 [36m(BenchmarkWorker pid=252851)[0m     %11 = arith.remsi %10, %9 : i32
[2m[36m(pid=252851) [0m:  20%|██        | 392/1.92k [05:03<22:14, 1.14it/s]                                                                 [36m(BenchmarkWorker pid=252851)[0m     %12 = arith.addi %7, %11 : i32
[2m[36m(pid=252851) [0m:  20%|██        | 392/1.92k [05:03<22:14, 1.14it/s]                                                                 [36m(BenchmarkWorker pid=252851)[0m     %13 = arith.divsi %10, %9 : i32
[2m[36m(pid=252851) [0m:  20%|██        | 392/1.92k [05:03<22:14, 1.14it/s]                                                                 [36m(BenchmarkWorker pid=252851)[0m     %14 = tt.load %arg6 : !tt.ptr<i32>
[2m[36m(pid=252851) [0m:  20%|██        | 392/1.92k [05:03<22:14, 1.14it/s]                                                                 [36m(BenchmarkWorker pid=252851)[0m     %15 = arith.muli %12, %c256_i32 : i32
[2m[36m(pid=252851) [0m:  20%|██        | 392/1.92k [05:03<22:14, 1.14it/s]                                                                 [36m(BenchmarkWorker pid=252851)[0m     %16 = arith.cmpi sge, %15, %14 : i32
[2m[36m(pid=252851) [0m:  20%|██        | 392/1.92k [05:03<22:14, 1.14it/s]                                                                 [36m(BenchmarkWorker pid=252851)[0m     cf.cond_br %16, ^bb1, ^bb2
[2m[36m(pid=252851) [0m:  20%|██        | 392/1.92k [05:03<22:14, 1.14it/s]                                                                 [36m(BenchmarkWorker pid=252851)[0m   ^bb1:  // pred: ^bb0
[2m[36m(pid=252851) [0m:  20%|██        | 392/1.92k [05:03<22:14, 1.14it/s]                                                                 [36m(BenchmarkWorker pid=252851)[0m     tt.return
[2m[36m(pid=252851) [0m:  20%|██        | 392/1.92k [05:03<22:14, 1.14it/s]                                                                 [36m(BenchmarkWorker pid=252851)[0m   ^bb2:  // pred: ^bb0
[2m[36m(pid=252851) [0m:  20%|██        | 392/1.92k [05:03<22:14, 1.14it/s]                                                                 [36m(BenchmarkWorker pid=252851)[0m     %17 = tt.make_range {end = 256 : i32, start = 0 : i32} : tensor<256xi32>
[2m[36m(pid=252851) [0m:  20%|██        | 392/1.92k [05:03<22:14, 1.14it/s]                                                                 [36m(BenchmarkWorker pid=252851)[0m     %18 = arith.extsi %17 : tensor<256xi32> to tensor<256xi64>
[2m[36m(pid=252851) [0m:  20%|██        | 392/1.92k [05:03<22:14, 1.14it/s]                                                                 [36m(BenchmarkWorker pid=252851)[0m     %19 = arith.extsi %15 : i32 to i64
[2m[36m(pid=252851) [0m:  20%|██        | 392/1.92k [05:03<22:14, 1.14it/s]                                                                 [36m(BenchmarkWorker pid=252851)[0m     %20 = tt.splat %19 : i64 -> tensor<256xi64>
[2m[36m(pid=252851) [0m:  20%|██        | 392/1.92k [05:03<22:14, 1.14it/s]                                                                 [36m(BenchmarkWorker pid=252851)[0m     %21 = arith.addi %20, %18 : tensor<256xi64>
[2m[36m(pid=252851) [0m:  20%|██        | 392/1.92k [05:03<22:14, 1.14it/s]                                                                 [36m(BenchmarkWorker pid=252851)[0m     %22 = tt.splat %arg4 : !tt.ptr<i32> -> tensor<256x!tt.ptr<i32>>
[2m[36m(pid=252851) [0m:  20%|██        | 392/1.92k [05:03<22:14, 1.14it/s]                                                                 [36m(BenchmarkWorker pid=252851)[0m     %23 = tt.addptr %22, %21 : tensor<256x!tt.ptr<i32>>, tensor<256xi64>
[2m[36m(pid=252851) [0m:  20%|██        | 392/1.92k [05:03<22:14, 1.14it/s]                                                                 [36m(BenchmarkWorker pid=252851)[0m     %24 = tt.load %23 : tensor<256x!tt.ptr<i32>>
[2m[36m(pid=252851) [0m:  20%|██        | 392/1.92k [05:03<22:14, 1.14it/s]                                                                 [36m(BenchmarkWorker pid=252851)[0m     %25 = arith.extsi %24 : tensor<256xi32> to tensor<256xi64>
[2m[36m(pid=252851) [0m:  20%|██        | 392/1.92k [05:03<22:14, 1.14it/s]                                                                 [36m(BenchmarkWorker pid=252851)[0m     %26 = arith.extsi %arg10 : i32 to i64
[2m[36m(pid=252851) [0m:  20%|██        | 392/1.92k [05:03<22:14, 1.14it/s]                                                                 [36m(BenchmarkWorker pid=252851)[0m     %27 = tt.splat %26 : i64 -> tensor<256xi64>
[2m[36m(pid=252851) [0m:  20%|██        | 392/1.92k [05:03<22:14, 1.14it/s]                                                                 [36m(BenchmarkWorker pid=252851)[0m     %28 = arith.cmpi slt, %25, %27 : tensor<256xi64>
[2m[36m(pid=252851) [0m:  20%|██        | 392/1.92k [05:03<22:14, 1.14it/s]                                                                 [36m(BenchmarkWorker pid=252851)[0m     %29 = tt.addptr %arg5, %12 : !tt.ptr<i32>, i32
[2m[36m(pid=252851) [0m:  20%|██        | 392/1.92k [05:03<22:14, 1.14it/s]                                                                 [36m(BenchmarkWorker pid=252851)[0m     %30 = tt.load %29 : !tt.ptr<i32>
[2m[36m(pid=252851) [0m:  20%|██        | 392/1.92k [05:03<22:14, 1.14it/s]                                                                 [36m(BenchmarkWorker pid=252851)[0m     %31 = arith.extsi %30 : i32 to i64
[2m[36m(pid=252851) [0m:  20%|██        | 392/1.92k [05:03<22:14, 1.14it/s]                                                                 [36m(BenchmarkWorker pid=252851)[0m     %32 = arith.cmpi eq, %31, %c-1_i64 : i64
[2m[36m(pid=252851) [0m:  20%|██        | 392/1.92k [05:03<22:14, 1.14it/s]                                                                 [36m(BenchmarkWorker pid=252851)[0m     cf.cond_br %32, ^bb3, ^bb4
[2m[36m(pid=252851) [0m:  20%|██        | 392/1.92k [05:03<22:14, 1.14it/s]                                                                 [36m(BenchmarkWorker pid=252851)[0m   ^bb3:  // pred: ^bb2
[2m[36m(pid=252851) [0m:  20%|██        | 392/1.92k [05:03<22:14, 1.14it/s]                                                                 [36m(BenchmarkWorker pid=252851)[0m     %33 = arith.muli %13, %c64_i32 : i32
[2m[36m(pid=252851) [0m:  20%|██        | 392/1.92k [05:03<22:14, 1.14it/s]                                                                 [36m(BenchmarkWorker pid=252851)[0m     %34 = tt.make_range {end = 64 : i32, start = 0 : i32} : tensor<64xi32>
[2m[36m(pid=252851) [0m:  20%|██        | 392/1.92k [05:03<22:14, 1.14it/s]                                                                 [36m(BenchmarkWorker pid=252851)[0m     %35 = tt.splat %33 : i32 -> tensor<64xi32>
[2m[36m(pid=252851) [0m:  20%|██        | 392/1.92k [05:03<22:14, 1.14it/s]                                                                 [36m(BenchmarkWorker pid=252851)[0m     %36 = arith.addi %35, %34 : tensor<64xi32>
[2m[36m(pid=252851) [0m:  20%|██        | 392/1.92k [05:03<22:14, 1.14it/s]                                                                 [36m(BenchmarkWorker pid=252851)[0m     %37 = tt.expand_dims %25 {axis = 1 : i32} : tensor<256xi64> -> tensor<256x1xi64>
[2m[36m(pid=252851) [0m:  20%|██        | 392/1.92k [05:03<22:14, 1.14it/s]                                                                 [36m(BenchmarkWorker pid=252851)[0m     %38 = arith.extsi %arg16 : i32 to i64
[2m[36m(pid=252851) [0m:  20%|██        | 392/1.92k [05:03<22:14, 1.14it/s]                                                                 [36m(BenchmarkWorker pid=252851)[0m     %39 = tt.splat %38 : i64 -> tensor<256x1xi64>
[2m[36m(pid=252851) [0m:  20%|██        | 392/1.92k [05:03<22:14, 1.14it/s]                                                                 [36m(BenchmarkWorker pid=252851)[0m     %40 = arith.muli %39, %37 : tensor<256x1xi64>
[2m[36m(pid=252851) [0m:  20%|██        | 392/1.92k [05:03<22:14, 1.14it/s]                                                                 [36m(BenchmarkWorker pid=252851)[0m     %41 = tt.splat %arg2 : !tt.ptr<bf16> -> tensor<256x1x!tt.ptr<bf16>>
[2m[36m(pid=252851) [0m:  20%|██        | 392/1.92k [05:03<22:14, 1.14it/s]                                                                 [36m(BenchmarkWorker pid=252851)[0m     %42 = tt.addptr %41, %40 : tensor<256x1x!tt.ptr<bf16>>, tensor<256x1xi64>
[2m[36m(pid=252851) [0m:  20%|██        | 392/1.92k [05:03<22:14, 1.14it/s]                                                                 [36m(BenchmarkWorker pid=252851)[0m     %43 = tt.expand_dims %36 {axis = 0 : i32} : tensor<64xi32> -> tensor<1x64xi32>
[2m[36m(pid=252851) [0m:  20%|██        | 392/1.92k [05:03<22:14, 1.14it/s]                                                                 [36m(BenchmarkWorker pid=252851)[0m     %44 = tt.broadcast %42 : tensor<256x1x!tt.ptr<bf16>> -> tensor<256x64x!tt.ptr<bf16>>
[2m[36m(pid=252851) [0m:  20%|██        | 392/1.92k [05:03<22:14, 1.14it/s]                                                                 [36m(BenchmarkWorker pid=252851)[0m     %45 = tt.broadcast %43 : tensor<1x64xi32> -> tensor<256x64xi32>
[2m[36m(pid=252851) [0m:  20%|██        | 392/1.92k [05:03<22:14, 1.14it/s]                                                                 [36m(BenchmarkWorker pid=252851)[0m     %46 = tt.addptr %44, %45 : tensor<256x64x!tt.ptr<bf16>>, tensor<256x64xi32>
[2m[36m(pid=252851) [0m:  20%|██        | 392/1.92k [05:03<22:14, 1.14it/s]                                                                 [36m(BenchmarkWorker pid=252851)[0m     %47 = tt.expand_dims %28 {axis = 1 : i32} : tensor<256xi1> -> tensor<256x1xi1>
[2m[36m(pid=252851) [0m:  20%|██        | 392/1.92k [05:03<22:14, 1.14it/s]                                                                 [36m(BenchmarkWorker pid=252851)[0m     %48 = tt.splat %arg7 : i32 -> tensor<1x64xi32>
[2m[36m(pid=252851) [0m:  20%|██        | 392/1.92k [05:03<22:14, 1.14it/s]                                                                 [36m(BenchmarkWorker pid=252851)[0m     %49 = arith.cmpi slt, %43, %48 : tensor<1x64xi32>
[2m[36m(pid=252851) [0m:  20%|██        | 392/1.92k [05:03<22:14, 1.14it/s]                                                                 [36m(BenchmarkWorker pid=252851)[0m     %50 = tt.broadcast %47 : tensor<256x1xi1> -> tensor<256x64xi1>
[2m[36m(pid=252851) [0m:  20%|██        | 392/1.92k [05:03<22:14, 1.14it/s]                                                                 [36m(BenchmarkWorker pid=252851)[0m     %51 = tt.broadcast %49 : tensor<1x64xi1> -> tensor<256x64xi1>
[2m[36m(pid=252851) [0m:  20%|██        | 392/1.92k [05:03<22:14, 1.14it/s]                                                                 [36m(BenchmarkWorker pid=252851)[0m     %52 = arith.andi %50, %51 : tensor<256x64xi1>
[2m[36m(pid=252851) [0m:  20%|██        | 392/1.92k [05:03<22:14, 1.14it/s]                                                                 [36m(BenchmarkWorker pid=252851)[0m     tt.store %46, %cst, %52 : tensor<256x64x!tt.ptr<bf16>>
[2m[36m(pid=252851) [0m:  20%|██        | 392/1.92k [05:03<22:14, 1.14it/s]                                                                 [36m(BenchmarkWorker pid=252851)[0m     tt.return
[2m[36m(pid=252851) [0m:  20%|██        | 392/1.92k [05:03<22:14, 1.14it/s]                                                                 [36m(BenchmarkWorker pid=252851)[0m   ^bb4:  // pred: ^bb2
[2m[36m(pid=252851) [0m:  20%|██        | 392/1.92k [05:03<22:14, 1.14it/s]                                                                 [36m(BenchmarkWorker pid=252851)[0m     %53 = arith.muli %13, %c64_i32 : i32
[2m[36m(pid=252851) [0m:  20%|██        | 392/1.92k [05:03<22:14, 1.14it/s]                                                                 [36m(BenchmarkWorker pid=252851)[0m     %54 = tt.make_range {end = 64 : i32, start = 0 : i32} : tensor<64xi32>
[2m[36m(pid=252851) [0m:  20%|██        | 392/1.92k [05:03<22:14, 1.14it/s]                                                                 [36m(BenchmarkWorker pid=252851)[0m     %55 = arith.extsi %54 : tensor<64xi32> to tensor<64xi64>
[2m[36m(pid=252851) [0m:  20%|██        | 392/1.92k [05:03<22:14, 1.14it/s]                                                                 [36m(BenchmarkWorker pid=252851)[0m     %56 = arith.extsi %53 : i32 to i64
[2m[36m(pid=252851) [0m:  20%|██        | 392/1.92k [05:03<22:14, 1.14it/s]                                                                 [36m(BenchmarkWorker pid=252851)[0m     %57 = tt.splat %56 : i64 -> tensor<64xi64>
[2m[36m(pid=252851) [0m:  20%|██        | 392/1.92k [05:03<22:14, 1.14it/s]                                                                 [36m(BenchmarkWorker pid=252851)[0m     %58 = arith.addi %57, %55 : tensor<64xi64>
[2m[36m(pid=252851) [0m:  20%|██        | 392/1.92k [05:03<22:14, 1.14it/s]                                                                 [36m(BenchmarkWorker pid=252851)[0m     %59 = arith.extsi %arg7 : i32 to i64
[2m[36m(pid=252851) [0m:  20%|██        | 392/1.92k [05:03<22:14, 1.14it/s]                                                                 [36m(BenchmarkWorker pid=252851)[0m     %60 = tt.splat %59 : i64 -> tensor<64xi64>
[2m[36m(pid=252851) [0m:  20%|██        | 392/1.92k [05:03<22:14, 1.14it/s]                                                                 [36m(BenchmarkWorker pid=252851)[0m     %61 = arith.remsi %58, %60 : tensor<64xi64>
[2m[36m(pid=252851) [0m:  20%|██        | 392/1.92k [05:03<22:14, 1.14it/s]                                                                 [36m(BenchmarkWorker pid=252851)[0m     %62 = tt.expand_dims %25 {axis = 1 : i32} : tensor<256xi64> -> tensor<256x1xi64>
[2m[36m(pid=252851) [0m:  20%|██        | 392/1.92k [05:03<22:14, 1.14it/s]                                                                 [36m(BenchmarkWorker pid=252851)[0m     %63 = arith.divsi %62, %cst_3 : tensor<256x1xi64>
[2m[36m(pid=252851) [0m:  20%|██        | 392/1.92k [05:03<22:14, 1.14it/s]                                                                 [36m(BenchmarkWorker pid=252851)[0m     %64 = arith.extsi %arg11 : i32 to i64
[2m[36m(pid=252851) [0m:  20%|██        | 392/1.92k [05:03<22:14, 1.14it/s]                                                                 [36m(BenchmarkWorker pid=252851)[0m     %65 = tt.splat %64 : i64 -> tensor<256x1xi64>
[2m[36m(pid=252851) [0m:  20%|██        | 392/1.92k [05:03<22:14, 1.14it/s]                                                                 [36m(BenchmarkWorker pid=252851)[0m     %66 = arith.muli %63, %65 : tensor<256x1xi64>
[2m[36m(pid=252851) [0m:  20%|██        | 392/1.92k [05:03<22:14, 1.14it/s]                                                                 [36m(BenchmarkWorker pid=252851)[0m     %67 = tt.expand_dims %54 {axis = 0 : i32} : tensor<64xi32> -> tensor<1x64xi32>
[2m[36m(pid=252851) [0m:  20%|██        | 392/1.92k [05:03<22:14, 1.14it/s]                                                                 [36m(BenchmarkWorker pid=252851)[0m     %68 = arith.extsi %67 : tensor<1x64xi32> to tensor<1x64xi64>
[2m[36m(pid=252851) [0m:  20%|██        | 392/1.92k [05:03<22:14, 1.14it/s]                                                                 [36m(BenchmarkWorker pid=252851)[0m     %69 = tt.broadcast %66 : tensor<256x1xi64> -> tensor<256x64xi64>
[2m[36m(pid=252851) [0m:  20%|██        | 392/1.92k [05:03<22:14, 1.14it/s]                                                                 [36m(BenchmarkWorker pid=252851)[0m     %70 = tt.broadcast %68 : tensor<1x64xi64> -> tensor<256x64xi64>
[2m[36m(pid=252851) [0m:  20%|██        | 392/1.92k [05:03<22:14, 1.14it/s]                                                                 [36m(BenchmarkWorker pid=252851)[0m     %71 = arith.addi %69, %70 : tensor<256x64xi64>
[2m[36m(pid=252851) [0m:  20%|██        | 392/1.92k [05:03<22:14, 1.14it/s]                                                                 [36m(BenchmarkWorker pid=252851)[0m     %72 = tt.splat %arg0 : !tt.ptr<bf16> -> tensor<256x64x!tt.ptr<bf16>>
[2m[36m(pid=252851) [0m:  20%|██        | 392/1.92k [05:03<22:14, 1.14it/s]                                                                 [36m(BenchmarkWorker pid=252851)[0m     %73 = tt.addptr %72, %71 : tensor<256x64x!tt.ptr<bf16>>, tensor<256x64xi64>
[2m[36m(pid=252851) [0m:  20%|██        | 392/1.92k [05:03<22:14, 1.14it/s]                                                                 [36m(BenchmarkWorker pid=252851)[0m     %74 = arith.extsi %arg12 : i32 to i64
[2m[36m(pid=252851) [0m:  20%|██        | 392/1.92k [05:03<22:14, 1.14it/s]                                                                 [36m(BenchmarkWorker pid=252851)[0m     %75 = arith.muli %31, %74 : i64
[2m[36m(pid=252851) [0m:  20%|██        | 392/1.92k [05:03<22:14, 1.14it/s]                                                                 [36m(BenchmarkWorker pid=252851)[0m     %76 = tt.addptr %arg1, %75 : !tt.ptr<bf16>, i64
[2m[36m(pid=252851) [0m:  20%|██        | 392/1.92k [05:03<22:14, 1.14it/s]                                                                 [36m(BenchmarkWorker pid=252851)[0m     %77 = tt.expand_dims %54 {axis = 1 : i32} : tensor<64xi32> -> tensor<64x1xi32>
[2m[36m(pid=252851) [0m:  20%|██        | 392/1.92k [05:03<22:14, 1.14it/s]                                                                 [36m(BenchmarkWorker pid=252851)[0m     %78 = tt.expand_dims %61 {axis = 0 : i32} : tensor<64xi64> -> tensor<1x64xi64>
[2m[36m(pid=252851) [0m:  20%|██        | 392/1.92k [05:03<22:14, 1.14it/s]                                                                 [36m(BenchmarkWorker pid=252851)[0m     %79 = arith.extsi %arg13 : i32 to i64
[2m[36m(pid=252851) [0m:  20%|██        | 392/1.92k [05:03<22:14, 1.14it/s]                                                                 [36m(BenchmarkWorker pid=252851)[0m     %80 = tt.splat %79 : i64 -> tensor<1x64xi64>
[2m[36m(pid=252851) [0m:  20%|██        | 392/1.92k [05:03<22:14, 1.14it/s]                                                                 [36m(BenchmarkWorker pid=252851)[0m     %81 = arith.muli %78, %80 : tensor<1x64xi64>
[2m[36m(pid=252851) [0m:  20%|██        | 392/1.92k [05:03<22:14, 1.14it/s]                                                                 [36m(BenchmarkWorker pid=252851)[0m     %82 = arith.extsi %77 : tensor<64x1xi32> to tensor<64x1xi64>
[2m[36m(pid=252851) [0m:  20%|██        | 392/1.92k [05:03<22:14, 1.14it/s]                                                                 [36m(BenchmarkWorker pid=252851)[0m     %83 = tt.broadcast %82 : tensor<64x1xi64> -> tensor<64x64xi64>
[2m[36m(pid=252851) [0m:  20%|██        | 392/1.92k [05:03<22:14, 1.14it/s]                                                                 [36m(BenchmarkWorker pid=252851)[0m     %84 = tt.broadcast %81 : tensor<1x64xi64> -> tensor<64x64xi64>
[2m[36m(pid=252851) [0m:  20%|██        | 392/1.92k [05:03<22:14, 1.14it/s]                                                                 [36m(BenchmarkWorker pid=252851)[0m     %85 = arith.addi %83, %84 : tensor<64x64xi64>
[2m[36m(pid=252851) [0m:  20%|██        | 392/1.92k [05:03<22:14, 1.14it/s]                                                                 [36m(BenchmarkWorker pid=252851)[0m     %86 = tt.splat %76 : !tt.ptr<bf16> -> tensor<64x64x!tt.ptr<bf16>>
[2m[36m(pid=252851) [0m:  20%|██        | 392/1.92k [05:03<22:14, 1.14it/s]                                                                 [36m(BenchmarkWorker pid=252851)[0m     %87 = tt.addptr %86, %85 : tensor<64x64x!tt.ptr<bf16>>, tensor<64x64xi64>
[2m[36m(pid=252851) [0m:  20%|██        | 392/1.92k [05:03<22:14, 1.14it/s]                                                                 [36m(BenchmarkWorker pid=252851)[0m     %88:3 = scf.for %arg22 = %c0_i32 to %arg8 step %c64_i32 iter_args(%arg23 = %73, %arg24 = %87, %arg25 = %cst_2) -> (tensor<256x64x!tt.ptr<bf16>>, tensor<64x64x!tt.ptr<bf16>>, tensor<256x64xf32>)  : i32 {
[2m[36m(pid=252851) [0m:  20%|██        | 392/1.92k [05:03<22:14, 1.14it/s]                                                                 [36m(BenchmarkWorker pid=252851)[0m       %107 = tt.expand_dims %28 {axis = 1 : i32} : tensor<256xi1> -> tensor<256x1xi1>
[2m[36m(pid=252851) [0m:  20%|██        | 392/1.92k [05:03<22:14, 1.14it/s]                                                                 [36m(BenchmarkWorker pid=252851)[0m       %108 = tt.broadcast %107 : tensor<256x1xi1> -> tensor<256x64xi1>
[2m[36m(pid=252851) [0m:  20%|██        | 392/1.92k [05:03<22:14, 1.14it/s]                                                                 [36m(BenchmarkWorker pid=252851)[0m       %109 = tt.load %arg23, %108, %cst : tensor<256x64x!tt.ptr<bf16>>
[2m[36m(pid=252851) [0m:  20%|██        | 392/1.92k [05:03<22:14, 1.14it/s]                                                                 [36m(BenchmarkWorker pid=252851)[0m       %110 = tt.load %arg24 : tensor<64x64x!tt.ptr<bf16>>
[2m[36m(pid=252851) [0m:  20%|██        | 392/1.92k [05:03<22:14, 1.14it/s]                                                                 [36m(BenchmarkWorker pid=252851)[0m       %111 = tt.dot %109, %110, %arg25, inputPrecision = tf32 : tensor<256x64xbf16> * tensor<64x64xbf16> -> tensor<256x64xf32>
[2m[36m(pid=252851) [0m:  20%|██        | 392/1.92k [05:03<22:14, 1.14it/s]                                                                 [36m(BenchmarkWorker pid=252851)[0m       %112 = tt.addptr %arg23, %cst_1 : tensor<256x64x!tt.ptr<bf16>>, tensor<256x64xi32>
[2m[36m(pid=252851) [0m:  20%|██        | 392/1.92k [05:03<22:14, 1.14it/s]                                                                 [36m(BenchmarkWorker pid=252851)[0m       %113 = tt.addptr %arg24, %cst_0 : tensor<64x64x!tt.ptr<bf16>>, tensor<64x64xi32>
[2m[36m(pid=252851) [0m:  20%|██        | 392/1.92k [05:03<22:14, 1.14it/s]                                                                 [36m(BenchmarkWorker pid=252851)[0m       scf.yield %112, %113, %111 : tensor<256x64x!tt.ptr<bf16>>, tensor<64x64x!tt.ptr<bf16>>, tensor<256x64xf32>
[2m[36m(pid=252851) [0m:  20%|██        | 392/1.92k [05:03<22:14, 1.14it/s]                                                                 [36m(BenchmarkWorker pid=252851)[0m     }
[2m[36m(pid=252851) [0m:  20%|██        | 392/1.92k [05:03<22:14, 1.14it/s]                                                                 [36m(BenchmarkWorker pid=252851)[0m     %89 = arith.truncf %88#2 : tensor<256x64xf32> to tensor<256x64xbf16>
[2m[36m(pid=252851) [0m:  20%|██        | 392/1.92k [05:03<22:14, 1.14it/s]                                                                 [36m(BenchmarkWorker pid=252851)[0m     %90 = tt.splat %53 : i32 -> tensor<64xi32>
…
[2m[36m(pid=252851) [0m: 100%|█████████▉| 1.91k/1.92k [26:08<00:09, 1.39s/it]                                                                   [36m(BenchmarkWorker pid=252851)[0m     %93 = tt.addptr %92, %91 : tensor<256x1x!tt.ptr<bf16>>, tensor<256x1xi64>
[2m[36m(pid=252851) [0m: 100%|█████████▉| 1.91k/1.92k [26:08<00:09, 1.39s/it]                                                                   [36m(BenchmarkWorker pid=252851)[0m     %94 = tt.expand_dims %88 {axis = 0 : i32} : tensor<256xi32> -> tensor<1x256xi32>
[2m[36m(pid=252851) [0m: 100%|█████████▉| 1.91k/1.92k [26:08<00:09, 1.39s/it]                                                                   [36m(BenchmarkWorker pid=252851)[0m     %95 = tt.broadcast %93 : tensor<256x1x!tt.ptr<bf16>> -> tensor<256x256x!tt.ptr<bf16>>
[2m[36m(pid=252851) [0m: 100%|█████████▉| 1.91k/1.92k [26:08<00:09, 1.39s/it]                                                                   [36m(BenchmarkWorker pid=252851)[0m     %96 = tt.broadcast %94 : tensor<1x256xi32> -> tensor<256x256xi32>
[2m[36m(pid=252851) [0m: 100%|█████████▉| 1.91k/1.92k [26:08<00:09, 1.39s/it]                                                                   [36m(BenchmarkWorker pid=252851)[0m     %97 = tt.addptr %95, %96 : tensor<256x256x!tt.ptr<bf16>>, tensor<256x256xi32>
[2m[36m(pid=252851) [0m: 100%|█████████▉| 1.91k/1.92k [26:08<00:09, 1.39s/it]                                                                   [36m(BenchmarkWorker pid=252851)[0m     %98 = tt.expand_dims %28 {axis = 1 : i32} : tensor<256xi1> -> tensor<256x1xi1>
[2m[36m(pid=252851) [0m: 100%|█████████▉| 1.91k/1.92k [26:08<00:09, 1.39s/it]                                                                   [36m(BenchmarkWorker pid=252851)[0m     %99 = tt.splat %arg7 : i32 -> tensor<1x256xi32>
[2m[36m(pid=252851) [0m: 100%|█████████▉| 1.91k/1.92k [26:08<00:09, 1.39s/it]                                                                   [36m(BenchmarkWorker pid=252851)[0m     %100 = arith.cmpi slt, %94, %99 : tensor<1x256xi32>
[2m[36m(pid=252851) [0m: 100%|█████████▉| 1.91k/1.92k [26:08<00:09, 1.39s/it]                                                                   [36m(BenchmarkWorker pid=252851)[0m     %101 = tt.broadcast %98 : tensor<256x1xi1> -> tensor<256x256xi1>
[2m[36m(pid=252851) [0m: 100%|█████████▉| 1.91k/1.92k [26:08<00:09, 1.39s/it]                                                                   [36m(BenchmarkWorker pid=252851)[0m     %102 = tt.broadcast %100 : tensor<1x256xi1> -> tensor<256x256xi1>
[2m[36m(pid=252851) [0m: 100%|█████████▉| 1.91k/1.92k [26:08<00:09, 1.39s/it]                                                                   [36m(BenchmarkWorker pid=252851)[0m     %103 = arith.andi %101, %102 : tensor<256x256xi1>
[2m[36m(pid=252851) [0m: 100%|█████████▉| 1.91k/1.92k [26:08<00:09, 1.39s/it]                                                                   [36m(BenchmarkWorker pid=252851)[0m     tt.store %97, %86, %103 : tensor<256x256x!tt.ptr<bf16>>
[2m[36m(pid=252851) [0m: 100%|█████████▉| 1.91k/1.92k [26:08<00:09, 1.39s/it]                                                                   [36m(BenchmarkWorker pid=252851)[0m     tt.return
[2m[36m(pid=252851) [0m: 100%|█████████▉| 1.91k/1.92k [26:08<00:09, 1.39s/it]                                                                   [36m(BenchmarkWorker pid=252851)[0m   }
[2m[36m(pid=252851) [0m: 100%|█████████▉| 1.91k/1.92k [26:08<00:09, 1.39s/it]                                                                   [36m(BenchmarkWorker pid=252851)[0m }
[2m[36m(pid=252851) [0m: 100%|█████████▉| 1.91k/1.92k [26:08<00:09, 1.39s/it]                                                                   [36m(BenchmarkWorker pid=252851)[0m 
[2m[36m(pid=252851) [0m: 100%|█████████▉| 1.91k/1.92k [26:08<00:09, 1.39s/it]                                                                   [36m(BenchmarkWorker pid=252851)[0m {-#
[2m[36m(pid=252851) [0m: 100%|█████████▉| 1.91k/1.92k [26:08<00:09, 1.39s/it]                                                                   [36m(BenchmarkWorker pid=252851)[0m   external_resources: {
[2m[36m(pid=252851) [0m: 100%|█████████▉| 1.91k/1.92k [26:08<00:09, 1.39s/it]                                                                   [36m(BenchmarkWorker pid=252851)[0m     mlir_reproducer: {
[2m[36m(pid=252851) [0m: 100%|█████████▉| 1.91k/1.92k [26:08<00:09, 1.39s/it]                                                                   [36m(BenchmarkWorker pid=252851)[0m       pipeline: "builtin.module(convert-triton-to-tritongpu{enable-source-remat=false num-ctas=1 num-warps=4 target=cuda:90 threads-per-warp=32}, tritongpu-coalesce, tritongpu-F32DotTC, triton-nvidia-gpu-plan-cta, tritongpu-remove-layout-conversions, tritongpu-optimize-thread-locality, tritongpu-accelerate-matmul, tritongpu-remove-layout-conversions, tritongpu-optimize-dot-operands{hoist-layout-conversion=true}, triton-nvidia-optimize-descriptor-encoding, triton-loop-aware-cse, tritongpu-fuse-nested-loops, canonicalize{  max-iterations=10 max-num-rewrites=-1 region-simplify=normal test-convergence=false top-down=true}, triton-licm, canonicalize{  max-iterations=10 max-num-rewrites=-1 region-simplify=normal test-convergence=false top-down=true}, tritongpu-combine-tensor-select-and-if, nvgpu-warp-specialization{dump-intermediate-steps=false num-stages=5}, tritongpu-assign-latencies{num-stages=5}, tritongpu-schedule-loops, tritongpu-pipeline{dump-intermediate-steps=false num-stages=5}, canonicalize{  max-iterations=10 max-num-rewrites=-1 region-simplify=normal test-convergence=false top-down=true}, triton-loop-aware-cse, tritongpu-prefetch, tritongpu-optimize-dot-operands{hoist-layout-conversion=true}, tritongpu-coalesce-async-copy, triton-nvidia-optimize-tmem-layouts, tritongpu-remove-layout-conversions, triton-nvidia-interleave-tmem, tritongpu-reduce-data-duplication, tritongpu-reorder-instructions, triton-loop-aware-cse, symbol-dce, triton-nvidia-tma-lowering, triton-nvidia-gpu-fence-insertion{compute-capability=90}, triton-nvidia-mma-lowering, sccp, cse, canonicalize{  max-iterations=10 max-num-rewrites=-1 region-simplify=normal test-convergence=false top-down=true})",
[2m[36m(pid=252851) [0m: 100%|█████████▉| 1.91k/1.92k [26:08<00:09, 1.39s/it]                                                                   [36m(BenchmarkWorker pid=252851)[0m       disable_threading: false,
[2m[36m(pid=252851) [0m: 100%|█████████▉| 1.91k/1.92k [26:08<00:09, 1.39s/it]                                                                   [36m(BenchmarkWorker pid=252851)[0m       verify_each: true
[2m[36m(pid=252851) [0m: 100%|█████████▉| 1.91k/1.92k [26:08<00:09, 1.39s/it]                                                                   [36m(BenchmarkWorker pid=252851)[0m     }
[2m[36m(pid=252851) [0m: 100%|█████████▉| 1.91k/1.92k [26:08<00:09, 1.39s/it]                                                                   [36m(BenchmarkWorker pid=252851)[0m   }
[2m[36m(pid=252851) [0m: 100%|█████████▉| 1.91k/1.92k [26:08<00:09, 1.39s/it]                                                                   [36m(BenchmarkWorker pid=252851)[0m #-}
[2m[36m(pid=252851) [0m: 100%|█████████▉| 1.91k/1.92k [26:08<00:09, 1.39s/it]                                                                   [36m(BenchmarkWorker pid=252851)[0m /home/t-jialianggu/work/sglang/python/sglang/srt/layers/moe/fused_moe_triton/fused_moe_triton_kernels.py:324:0: error: Failures have been detected while processing an MLIR pass pipeline
[2m[36m(pid=252851) [0m: 100%|█████████▉| 1.91k/1.92k [26:08<00:09, 1.39s/it]                                                                   [36m(BenchmarkWorker pid=252851)[0m /home/t-jialianggu/work/sglang/python/sglang/srt/layers/moe/fused_moe_triton/fused_moe_triton_kernels.py:324:0: note: Pipeline failed while executing [`TritonGPURemoveLayoutConversions` on 'builtin.module' operation]: reproducer generated at `std::errs, please share the reproducer above with Triton project.`
[2m[36m(pid=252851) [0m: 100%|█████████▉| 1.91k/1.92k [26:08<00:09, 1.39s/it]                                                                   [36m(BenchmarkWorker pid=252851)[0m /home/t-jialianggu/work/sglang/python/sglang/srt/layers/moe/fused_moe_triton/fused_moe_triton_kernels.py:610:24: error: operand #0 does not dominate this use
[2m[36m(pid=252851) [0m: 100%|█████████▉| 1.91k/1.92k [26:08<00:09, 1.39s/it]                                                                   [36m(BenchmarkWorker pid=252851)[0m     c_mask = token_mask[:, None] & (offs_cn[None, :] < N)
[2m[36m(pid=252851) [0m: 100%|█████████▉| 1.91k/1.92k [26:08<00:09, 1.39s/it]                                                                   [36m(BenchmarkWorker pid=252851)[0m                        ^
[2m[36m(pid=252851) [0m: 100%|█████████▉| 1.91k/1.92k [26:08<00:09, 1.39s/it]                                                                   [36m(BenchmarkWorker pid=252851)[0m /home/t-jialianggu/work/sglang/python/sglang/srt/layers/moe/fused_moe_triton/fused_moe_triton_kernels.py:531:32: note: operand defined here (op in a child region)
[2m[36m(pid=252851) [0m: 100%|█████████▉| 1.91k/1.92k [26:08<00:09, 1.39s/it]                                                                   [36m(BenchmarkWorker pid=252851)[0m                 mask=token_mask[:, None],
[2m[36m(pid=252851) [0m: 100%|█████████▉| 1.91k/1.92k [26:08<00:09, 1.39s/it]                                                                   [36m(BenchmarkWorker pid=252851)[0m                                ^
[2m[36m(pid=252851) [0m: 100%|█████████▉| 1.91k/1.92k [26:08<00:09, 1.39s/it]                                                                   [36m(BenchmarkWorker pid=252851)[0m module {
[2m[36m(pid=252851) [0m: 100%|█████████▉| 1.91k/1.92k [26:08<00:09, 1.39s/it]                                                                   [36m(BenchmarkWorker pid=252851)[0m   tt.func public @fused_moe_kernel(%arg0: !tt.ptr<bf16> {tt.divisibility = 16 : i32}, %arg1: !tt.ptr<bf16> {tt.divisibility = 16 : i32}, %arg2: !tt.ptr<bf16> {tt.divisibility = 16 : i32}, %arg3: !tt.ptr<f32> {tt.divisibility = 16 : i32}, %arg4: !tt.ptr<i32> {tt.divisibility = 16 : i32}, %arg5: !tt.ptr<i32> {tt.divisibility = 16 : i32}, %arg6: !tt.ptr<i32> {tt.divisibility = 16 : i32}, %arg7: i32 {tt.divisibility = 16 : i32}, %arg8: i32 {tt.divisibility = 16 : i32}, %arg9: i32, %arg10: i32 {tt.divisibility = 16 : i32}, %arg11: i32 {tt.divisibility = 16 : i32}, %arg12: i32 {tt.divisibility = 16 : i32}, %arg13: i32 {tt.divisibility = 16 : i32}, %arg14: i32 {tt.divisibility = 16 : i32}, %arg15: i32 {tt.divisibility = 16 : i32}, %arg16: i32 {tt.divisibility = 16 : i32}, %arg17: i32 {tt.divisibility = 16 : i32}, %arg18: i32 {tt.divisibility = 16 : i32}, %arg19: i32 {tt.divisibility = 16 : i32}, %arg20: i32 {tt.divisibility = 16 : i32}, %arg21: i32 {tt.divisibility = 16 : i32}) attributes {noinline = false} {
[2m[36m(pid=252851) [0m: 100%|█████████▉| 1.91k/1.92k [26:08<00:09, 1.39s/it]                                                                   [36m(BenchmarkWorker pid=252851)[0m     %c255_i32 = arith.constant 255 : i32
[2m[36m(pid=252851) [0m: 100%|█████████▉| 1.91k/1.92k [26:08<00:09, 1.39s/it]                                                                   [36m(BenchmarkWorker pid=252851)[0m     %cst = arith.constant dense<0.000000e+00> : tensor<256x256xbf16>
[2m[36m(pid=252851) [0m: 100%|█████████▉| 1.91k/1.92k [26:08<00:09, 1.39s/it]                                                                   [36m(BenchmarkWorker pid=252851)[0m     %c0_i32 = arith.constant 0 : i32
[2m[36m(pid=252851) [0m: 100%|█████████▉| 1.91k/1.92k [26:08<00:09, 1.39s/it]                                                                   [36m(BenchmarkWorker pid=252851)[0m     %c-1_i64 = arith.constant -1 : i64
[2m[36m(pid=252851) [0m: 100%|█████████▉| 1.91k/1.92k [26:08<00:09, 1.39s/it]                                                                   [36m(BenchmarkWorker pid=252851)[0m     %cst_0 = arith.constant dense<256> : tensor<256x256xi32>
[2m[36m(pid=252851) [0m: 100%|█████████▉| 1.91k/1.92k [26:08<00:09, 1.39s/it]                                                                   [36m(BenchmarkWorker pid=252851)[0m     %cst_1 = arith.constant dense<0.000000e+00> : tensor<256x256xf32>
[2m[36m(pid=252851) [0m: 100%|█████████▉| 1.91k/1.92k [26:08<00:09, 1.39s/it]                                                                   [36m(BenchmarkWorker pid=252851)[0m     %cst_2 = arith.constant dense<8> : tensor<256x1xi64>
[2m[36m(pid=252851) [0m: 100%|█████████▉| 1.91k/1.92k [26:08<00:09, 1.39s/it]                                                                   [36m(BenchmarkWorker pid=252851)[0m     %c256_i32 = arith.constant 256 : i32
[2m[36m(pid=252851) [0m: 100%|█████████▉| 1.91k/1.92k [26:08<00:09, 1.39s/it]                                                                   [36m(BenchmarkWorker pid=252851)[0m     %c64_i32 = arith.constant 64 : i32
[2m[36m(pid=252851) [0m: 100%|█████████▉| 1.91k/1.92k [26:08<00:09, 1.39s/it]                                                                   [36m(BenchmarkWorker pid=252851)[0m     %0 = tt.get_program_id x : i32
[2m[36m(pid=252851) [0m: 100%|█████████▉| 1.91k/1.92k [26:08<00:09, 1.39s/it]                                                                   [36m(BenchmarkWorker pid=252851)[0m     %1 = arith.addi %arg9, %c255_i32 : i32
[2m[36m(pid=252851) [0m: 100%|█████████▉| 1.91k/1.92k [26:08<00:09, 1.39s/it]                                                                   [36m(BenchmarkWorker pid=252851)[0m     %2 = arith.divsi %1, %c256_i32 : i32
[2m[36m(pid=252851) [0m: 100%|█████████▉| 1.91k/1.92k [26:08<00:09, 1.39s/it]                                                                   [36m(BenchmarkWorker pid=252851)[0m     %3 = arith.addi %arg7, %c255_i32 : i32
[2m[36m(pid=252851) [0m: 100%|█████████▉| 1.91k/1.92k [26:08<00:09, 1.39s/it]                                                                   [36m(BenchmarkWorker pid=252851)[0m     %4 = arith.divsi %3, %c256_i32 : i32
[2m[36m(pid=252851) [0m: 100%|█████████▉| 1.91k/1.92k [26:08<00:09, 1.39s/it]                                                                   [36m(BenchmarkWorker pid=252851)[0m     %5 = arith.muli %4, %c64_i32 : i32
[2m[36m(pid=252851) [0m: 100%|█████████▉| 1.91k/1.92k [26:08<00:09, 1.39s/it]                                                                   [36m(BenchmarkWorker pid=252851)[0m     %6 = arith.divsi %0, %5 : i32
[2m[36m(pid=252851) [0m: 100%|█████████▉| 1.91k/1.92k [26:08<00:09, 1.39s/it]                                                                   [36m(BenchmarkWorker pid=252851)[0m     %7 = arith.muli %6, %c64_i32 : i32
[2m[36m(pid=252851) [0m: 100%|█████████▉| 1.91k/1.92k [26:08<00:09, 1.39s/it]                                                                   [36m(BenchmarkWorker pid=252851)[0m     %8 = arith.subi %2, %7 : i32
[2m[36m(pid=252851) [0m: 100%|█████████▉| 1.91k/1.92k [26:08<00:09, 1.39s/it]                                                                   [36m(BenchmarkWorker pid=252851)[0m     %9 = arith.minsi %8, %c64_i32 : i32
[2m[36m(pid=252851) [0m: 100%|█████████▉| 1.91k/1.92k [26:08<00:09, 1.39s/it]                                                                   [36m(BenchmarkWorker pid=252851)[0m     %10 = arith.remsi %0, %5 : i32
[2m[36m(pid=252851) [0m: 100%|█████████▉| 1.91k/1.92k [26:08<00:09, 1.39s/it]                                                                   [36m(BenchmarkWorker pid=252851)[0m     %11 = arith.remsi %10, %9 : i32
[2m[36m(pid=252851) [0m: 100%|█████████▉| 1.91k/1.92k [26:08<00:09, 1.39s/it]                                                                   [36m(BenchmarkWorker pid=252851)[0m     %12 = arith.addi %7, %11 : i32
[2m[36m(pid=252851) [0m: 100%|█████████▉| 1.91k/1.92k [26:08<00:09, 1.39s/it]                                                                   [36m(BenchmarkWorker pid=252851)[0m     %13 = arith.divsi %10, %9 : i32
[2m[36m(pid=252851) [0m: 100%|█████████▉| 1.91k/1.92k [26:08<00:09, 1.39s/it]                                                                   [36m(BenchmarkWorker pid=252851)[0m     %14 = tt.load %arg6 : !tt.ptr<i32>
[2m[36m(pid=252851) [0m: 100%|█████████▉| 1.91k/1.92k [26:08<00:09, 1.39s/it]                                                                   [36m(BenchmarkWorker pid=252851)[0m     %15 = arith.muli %12, %c256_i32 : i32
[2m[36m(pid=252851) [0m: 100%|█████████▉| 1.91k/1.92k [26:08<00:09, 1.39s/it]                                                                   [36m(BenchmarkWorker pid=252851)[0m     %16 = arith.cmpi sge, %15, %14 : i32
[2m[36m(pid=252851) [0m: 100%|█████████▉| 1.91k/1.92k [26:08<00:09, 1.39s/it]                                                                   [36m(BenchmarkWorker pid=252851)[0m     cf.cond_br %16, ^bb1, ^bb2
[2m[36m(pid=252851) [0m: 100%|█████████▉| 1.91k/1.92k [26:08<00:09, 1.39s/it]                                                                   [36m(BenchmarkWorker pid=252851)[0m   ^bb1:  // pred: ^bb0
[2m[36m(pid=252851) [0m: 100%|█████████▉| 1.91k/1.92k [26:08<00:09, 1.39s/it]                                                                   [36m(BenchmarkWorker pid=252851)[0m     tt.return
[2m[36m(pid=252851) [0m: 100%|█████████▉| 1.91k/1.92k [26:08<00:09, 1.39s/it]                                                                   [36m(BenchmarkWorker pid=252851)[0m   ^bb2:  // pred: ^bb0
[2m[36m(pid=252851) [0m: 100%|█████████▉| 1.91k/1.92k [26:08<00:09, 1.39s/it]                                                                   [36m(BenchmarkWorker pid=252851)[0m     %17 = tt.make_range {end = 256 : i32, start = 0 : i32} : tensor<256xi32>
[2m[36m(pid=252851) [0m: 100%|█████████▉| 1.91k/1.92k [26:08<00:09, 1.39s/it]                                                                   [36m(BenchmarkWorker pid=252851)[0m     %18 = arith.extsi %17 : tensor<256xi32> to tensor<256xi64>
[2m[36m(pid=252851) [0m: 100%|█████████▉| 1.91k/1.92k [26:08<00:09, 1.39s/it]                                                                   [36m(BenchmarkWorker pid=252851)[0m     %19 = arith.extsi %15 : i32 to i64
[2m[36m(pid=252851) [0m: 100%|█████████▉| 1.91k/1.92k [26:08<00:09, 1.39s/it]                                                                   [36m(BenchmarkWorker pid=252851)[0m     %20 = tt.splat %19 : i64 -> tensor<256xi64>
[2m[36m(pid=252851) [0m: 100%|█████████▉| 1.91k/1.92k [26:08<00:09, 1.39s/it]                                                                   [36m(BenchmarkWorker pid=252851)[0m     %21 = arith.addi %20, %18 : tensor<256xi64>
[2m[36m(pid=252851) [0m: 100%|█████████▉| 1.91k/1.92k [26:08<00:09, 1.39s/it]                                                                   [36m(BenchmarkWorker pid=252851)[0m     %22 = tt.splat %arg4 : !tt.ptr<i32> -> tensor<256x!tt.ptr<i32>>
[2m[36m(pid=252851) [0m: 100%|█████████▉| 1.91k/1.92k [26:08<00:09, 1.39s/it]                                                                   [36m(BenchmarkWorker pid=252851)[0m     %23 = tt.addptr %22, %21 : tensor<256x!tt.ptr<i32>>, tensor<256xi64>
[2m[36m(pid=252851) [0m: 100%|█████████▉| 1.91k/1.92k [26:08<00:09, 1.39s/it]                                                                   [36m(BenchmarkWorker pid=252851)[0m     %24 = tt.load %23 : tensor<256x!tt.ptr<i32>>
[2m[36m(pid=252851) [0m: 100%|█████████▉| 1.91k/1.92k [26:08<00:09, 1.39s/it]                                                                   [36m(BenchmarkWorker pid=252851)[0m     %25 = arith.extsi %24 : tensor<256xi32> to tensor<256xi64>
[2m[36m(pid=252851) [0m: 100%|█████████▉| 1.91k/1.92k [26:08<00:09, 1.39s/it]                                                                   [36m(BenchmarkWorker pid=252851)[0m     %26 = arith.extsi %arg10 : i32 to i64
[2m[36m(pid=252851) [0m: 100%|█████████▉| 1.91k/1.92k [26:08<00:09, 1.39s/it]                                                                   [36m(BenchmarkWorker pid=252851)[0m     %27 = tt.splat %26 : i64 -> tensor<256xi64>
[2m[36m(pid=252851) [0m: 100%|█████████▉| 1.91k/1.92k [26:08<00:09, 1.39s/it]                                                                   [36m(BenchmarkWorker pid=252851)[0m     %28 = arith.cmpi slt, %25, %27 : tensor<256xi64>
[2m[36m(pid=252851) [0m: 100%|█████████▉| 1.91k/1.92k [26:08<00:09, 1.39s/it]                                                                   [36m(BenchmarkWorker pid=252851)[0m     %29 = tt.addptr %arg5, %12 : !tt.ptr<i32>, i32
[2m[36m(pid=252851) [0m: 100%|█████████▉| 1.91k/1.92k [26:08<00:09, 1.39s/it]                                                                   [36m(BenchmarkWorker pid=252851)[0m     %30 = tt.load %29 : !tt.ptr<i32>
[2m[36m(pid=252851) [0m: 100%|█████████▉| 1.91k/1.92k [26:08<00:09, 1.39s/it]                                                                   [36m(BenchmarkWorker pid=252851)[0m     %31 = arith.extsi %30 : i32 to i64
[2m[36m(pid=252851) [0m: 100%|█████████▉| 1.91k/1.92k [26:08<00:09, 1.39s/it]                                                                   [36m(BenchmarkWorker pid=252851)[0m     %32 = arith.cmpi eq, %31, %c-1_i64 : i64
[2m[36m(pid=252851) [0m: 100%|█████████▉| 1.91k/1.92k [26:08<00:09, 1.39s/it]                                                                   [36m(BenchmarkWorker pid=252851)[0m     cf.cond_br %32, ^bb3, ^bb4
[2m[36m(pid=252851) [0m: 100%|█████████▉| 1.91k/1.92k [26:08<00:09, 1.39s/it]                                                                   [36m(BenchmarkWorker pid=252851)[0m   ^bb3:  // pred: ^bb2
[2m[36m(pid=252851) [0m: 100%|█████████▉| 1.91k/1.92k [26:08<00:09, 1.39s/it]                                                                   [36m(BenchmarkWorker pid=252851)[0m     %33 = arith.muli %13, %c256_i32 : i32
[2m[36m(pid=252851) [0m: 100%|█████████▉| 1.91k/1.92k [26:08<00:09, 1.39s/it]                                                                   [36m(BenchmarkWorker pid=252851)[0m     %34 = tt.splat %33 : i32 -> tensor<256xi32>
[2m[36m(pid=252851) [0m: 100%|█████████▉| 1.91k/1.92k [26:08<00:09, 1.39s/it]                                                                   [36m(BenchmarkWorker pid=252851)[0m     %35 = arith.addi %34, %17 : tensor<256xi32>
[2m[36m(pid=252851) [0m: 100%|█████████▉| 1.91k/1.92k [26:08<00:09, 1.39s/it]                                                                   [36m(BenchmarkWorker pid=252851)[0m     %36 = tt.expand_dims %25 {axis = 1 : i32} : tensor<256xi64> -> tensor<256x1xi64>
[2m[36m(pid=252851) [0m: 100%|█████████▉| 1.91k/1.92k [26:08<00:09, 1.39s/it]                                                                   [36m(BenchmarkWorker pid=252851)[0m     %37 = arith.extsi %arg16 : i32 to i64
[2m[36m(pid=252851) [0m: 100%|█████████▉| 1.91k/1.92k [26:08<00:09, 1.39s/it]                                                                   [36m(BenchmarkWorker pid=252851)[0m     %38 = tt.splat %37 : i64 -> tensor<256x1xi64>
[2m[36m(pid=252851) [0m: 100%|█████████▉| 1.91k/1.92k [26:08<00:09, 1.39s/it]                                                                   [36m(BenchmarkWorker pid=252851)[0m     %39 = arith.muli %38, %36 : tensor<256x1xi64>
[2m[36m(pid=252851) [0m: 100%|█████████▉| 1.91k/1.92k [26:08<00:09, 1.39s/it]                                                                   [36m(BenchmarkWorker pid=252851)[0m     %40 = tt.splat %arg2 : !tt.ptr<bf16> -> tensor<256x1x!tt.ptr<bf16>>
[2m[36m(pid=252851) [0m: 100%|█████████▉| 1.91k/1.92k [26:08<00:09, 1.39s/it]                                                                   [36m(BenchmarkWorker pid=252851)[0m     %41 = tt.addptr %40, %39 : tensor<256x1x!tt.ptr<bf16>>, tensor<256x1xi64>
[2m[36m(pid=252851) [0m: 100%|█████████▉| 1.91k/1.92k [26:08<00:09, 1.39s/it]                                                                   [36m(BenchmarkWorker pid=252851)[0m     %42 = tt.expand_dims %35 {axis = 0 : i32} : tensor<256xi32> -> tensor<1x256xi32>
[2m[36m(pid=252851) [0m: 100%|█████████▉| 1.91k/1.92k [26:08<00:09, 1.39s/it]                                                                   [36m(BenchmarkWorker pid=252851)[0m     %43 = tt.broadcast %41 : tensor<256x1x!tt.ptr<bf16>> -> tensor<256x256x!tt.ptr<bf16>>
[2m[36m(pid=252851) [0m: 100%|█████████▉| 1.91k/1.92k [26:08<00:09, 1.39s/it]                                                                   [36m(BenchmarkWorker pid=252851)[0m     %44 = tt.broadcast %42 : tensor<1x256xi32> -> tensor<256x256xi32>
[2m[36m(pid=252851) [0m: 100%|█████████▉| 1.91k/1.92k [26:08<00:09, 1.39s/it]                                                                   [36m(BenchmarkWorker pid=252851)[0m     %45 = tt.addptr %43, %44 : tensor<256x256x!tt.ptr<bf16>>, tensor<256x256xi32>
[2m[36m(pid=252851) [0m: 100%|█████████▉| 1.91k/1.92k [26:08<00:09, 1.39s/it]                                                                   [36m(BenchmarkWorker pid=252851)[0m     %46 = tt.expand_dims %28 {axis = 1 : i32} : tensor<256xi1> -> tensor<256x1xi1>
[2m[36m(pid=252851) [0m: 100%|█████████▉| 1.91k/1.92k [26:08<00:09, 1.39s/it]                                                                   [36m(BenchmarkWorker pid=252851)[0m     %47 = tt.splat %arg7 : i32 -> tensor<1x256xi32>
[2m[36m(pid=252851) [0m: 100%|█████████▉| 1.91k/1.92k [26:08<00:09, 1.39s/it]                                                                   [36m(BenchmarkWorker pid=252851)[0m     %48 = arith.cmpi slt, %42, %47 : tensor<1x256xi32>
[2m[36m(pid=252851) [0m: 100%|█████████▉| 1.91k/1.92k [26:08<00:09, 1.39s/it]                                                                   [36m(BenchmarkWorker pid=252851)[0m     %49 = tt.broadcast %46 : tensor<256x1xi1> -> tensor<256x256xi1>
[2m[36m(pid=252851) [0m: 100%|█████████▉| 1.91k/1.92k [26:08<00:09, 1.39s/it]                                                                   [36m(BenchmarkWorker pid=252851)[0m     %50 = tt.broadcast %48 : tensor<1x256xi1> -> tensor<256x256xi1>
[2m[36m(pid=252851) [0m: 100%|█████████▉| 1.91k/1.92k [26:08<00:09, 1.39s/it]                                                                   [36m(BenchmarkWorker pid=252851)[0m     %51 = arith.andi %49, %50 : tensor<256x256xi1>
[2m[36m(pid=252851) [0m: 100%|█████████▉| 1.91k/1.92k [26:08<00:09, 1.39s/it]                                                                   [36m(BenchmarkWorker pid=252851)[0m     tt.store %45, %cst, %51 : tensor<256x256x!tt.ptr<bf16>>
[2m[36m(pid=252851) [0m: 100%|█████████▉| 1.91k/1.92k [26:08<00:09, 1.39s/it]                                                                   [36m(BenchmarkWorker pid=252851)[0m     tt.return
[2m[36m(pid=252851) [0m: 100%|█████████▉| 1.91k/1.92k [26:08<00:09, 1.39s/it]                                                                   [36m(BenchmarkWorker pid=252851)[0m   ^bb4:  // pred: ^bb2
[2m[36m(pid=252851) [0m: 100%|█████████▉| 1.91k/1.92k [26:08<00:09, 1.39s/it]                                                                   [36m(BenchmarkWorker pid=252851)[0m     %52 = arith.muli %13, %c256_i32 : i32
[2m[36m(pid=252851) [0m: 100%|█████████▉| 1.91k/1.92k [26:08<00:09, 1.39s/it]                                                                   [36m(BenchmarkWorker pid=252851)[0m     %53 = arith.extsi %52 : i32 to i64
[2m[36m(pid=252851) [0m: 100%|█████████▉| 1.91k/1.92k [26:08<00:09, 1.39s/it]                                                                   [36m(BenchmarkWorker pid=252851)[0m     %54 = tt.splat %53 : i64 -> tensor<256xi64>
[2m[36m(pid=252851) [0m: 100%|█████████▉| 1.91k/1.92k [26:08<00:09, 1.39s/it]                                                                   [36m(BenchmarkWorker pid=252851)[0m     %55 = arith.addi %54, %18 : tensor<256xi64>
[2m[36m(pid=252851) [0m: 100%|█████████▉| 1.91k/1.92k [26:08<00:09, 1.39s/it]                                                                   [36m(BenchmarkWorker pid=252851)[0m     %56 = arith.extsi %arg7 : i32 to i64
[2m[36m(pid=252851) [0m: 100%|█████████▉| 1.91k/1.92k [26:08<00:09, 1.39s/it]                                                                   [36m(BenchmarkWorker pid=252851)[0m     %57 = tt.splat %56 : i64 -> tensor<256xi64>
[2m[36m(pid=252851) [0m: 100%|█████████▉| 1.91k/1.92k [26:08<00:09, 1.39s/it]                                                                   [36m(BenchmarkWorker pid=252851)[0m     %58 = arith.remsi %55, %57 : tensor<256xi64>
[2m[36m(pid=252851) [0m: 100%|█████████▉| 1.91k/1.92k [26:08<00:09, 1.39s/it]                                                                   [36m(BenchmarkWorker pid=252851)[0m     %59 = tt.expand_dims %25 {axis = 1 : i32} : tensor<256xi64> -> tensor<256x1xi64>
[2m[36m(pid=252851) [0m: 100%|█████████▉| 1.91k/1.92k [26:08<00:09, 1.39s/it]                                                                   [36m(BenchmarkWorker pid=252851)[0m     %60 = arith.divsi %59, %cst_2 : tensor<256x1xi64>
[2m[36m(pid=252851) [0m: 100%|█████████▉| 1.91k/1.92k [26:08<00:09, 1.39s/it]                                                                   [36m(BenchmarkWorker pid=252851)[0m     %61 = arith.extsi %arg11 : i32 to i64
[2m[36m(pid=252851) [0m: 100%|█████████▉| 1.91k/1.92k [26:08<00:09, 1.39s/it]                                                                   [36m(BenchmarkWorker pid=252851)[0m     %62 = tt.splat %61 : i64 -> tensor<256x1xi64>
[2m[36m(pid=252851) [0m: 100%|█████████▉| 1.91k/1.92k [26:08<00:09, 1.39s/it]                                                                   [36m(BenchmarkWorker pid=252851)[0m     %63 = arith.muli %60, %62 : tensor<256x1xi64>
[2m[36m(pid=252851) [0m: 100%|█████████▉| 1.91k/1.92k [26:08<00:09, 1.39s/it]                                                                   [36m(BenchmarkWorker pid=252851)[0m     %64 = tt.expand_dims %17 {axis = 0 : i32} : tensor<256xi32> -> tensor<1x256xi32>
[2m[36m(pid=252851) [0m: 100%|█████████▉| 1.91k/1.92k [26:08<00:09, 1.39s/it]                                                                   [36m(BenchmarkWorker pid=252851)[0m     %65 = arith.extsi %64 : tensor<1x256xi32> to tensor<1x256xi64>
[2m[36m(pid=252851) [0m: 100%|█████████▉| 1.91k/1.92k [26:08<00:09, 1.39s/it]                                                                   [36m(BenchmarkWorker pid=252851)[0m     %66 = tt.broadcast %63 : tensor<256x1xi64> -> tensor<256x256xi64>
[2m[36m(pid=252851) [0m: 100%|█████████▉| 1.91k/1.92k [26:08<00:09, 1.39s/it]                                                                   [36m(BenchmarkWorker pid=252851)[0m     %67 = tt.broadcast %65 : tensor<1x256xi64> -> tensor<256x256xi64>
[2m[36m(pid=252851) [0m: 100%|█████████▉| 1.91k/1.92k [26:08<00:09, 1.39s/it]                                                                   [36m(BenchmarkWorker pid=252851)[0m     %68 = arith.addi %66, %67 : tensor<256x256xi64>
[2m[36m(pid=252851) [0m: 100%|█████████▉| 1.91k/1.92k [26:08<00:09, 1.39s/it]                                                                   [36m(BenchmarkWorker pid=252851)[0m     %69 = tt.splat %arg0 : !tt.ptr<bf16> -> tensor<256x256x!tt.ptr<bf16>>
[2m[36m(pid=252851) [0m: 100%|█████████▉| 1.91k/1.92k [26:08<00:09, 1.39s/it]                                                                   [36m(BenchmarkWorker pid=252851)[0m     %70 = tt.addptr %69, %68 : tensor<256x256x!tt.ptr<bf16>>, tensor<256x256xi64>
[2m[36m(pid=252851) [0m: 100%|█████████▉| 1.91k/1.92k [26:08<00:09, 1.39s/it]                                                                   [36m(BenchmarkWorker pid=252851)[0m     %71 = arith.extsi %arg12 : i32 to i64
[2m[36m(pid=252851) [0m: 100%|█████████▉| 1.91k/1.92k [26:08<00:09, 1.39s/it]                                                                   [36m(BenchmarkWorker pid=252851)[0m     %72 = arith.muli %31, %71 : i64
[2m[36m(pid=252851) [0m: 100%|█████████▉| 1.91k/1.92k [26:08<00:09, 1.39s/it]                                                                   [36m(BenchmarkWorker pid=252851)[0m     %73 = tt.addptr %arg1, %72 : !tt.ptr<bf16>, i64
[2m[36m(pid=252851) [0m: 100%|█████████▉| 1.91k/1.92k [26:08<00:09, 1.39s/it]                                                                   [36m(BenchmarkWorker pid=252851)[0m     %74 = tt.expand_dims %17 {axis = 1 : i32} : tensor<256xi32> -> tensor<256x1xi32>
[2m[36m(pid=252851) [0m: 100%|█████████▉| 1.91k/1.92k [26:08<00:09, 1.39s/it]                                                                   [36m(BenchmarkWorker pid=252851)[0m     %75 = tt.expand_dims %58 {axis = 0 : i32} : tensor<256xi64> -> tensor<1x256xi64>
[2m[36m(pid=252851) [0m: 100%|█████████▉| 1.91k/1.92k [26:08<00:09, 1.39s/it]                                                                   [36m(BenchmarkWorker pid=252851)[0m     %76 = arith.extsi %arg13 : i32 to i64
[2m[36m(pid=252851) [0m: 100%|█████████▉| 1.91k/1.92k [26:08<00:09, 1.39s/it]                                                                   [36m(BenchmarkWorker pid=252851)[0m     %77 = tt.splat %76 : i64 -> tensor<1x256xi64>
[2m[36m(pid=252851) [0m: 100%|█████████▉| 1.91k/1.92k [26:08<00:09, 1.39s/it]                                                                   [36m(BenchmarkWorker pid=252851)[0m     %78 = arith.muli %75, %77 : tensor<1x256xi64>
[2m[36m(pid=252851) [0m: 100%|█████████▉| 1.91k/1.92k [26:08<00:09, 1.39s/it]                                                                   [36m(BenchmarkWorker pid=252851)[0m     %79 = arith.extsi %74 : tensor<256x1xi32> to tensor<256x1xi64>
[2m[36m(pid=252851) [0m: 100%|█████████▉| 1.91k/1.92k [26:08<00:09, 1.39s/it]                                                                   [36m(BenchmarkWorker pid=252851)[0m     %80 = tt.broadcast %79 : tensor<256x1xi64> -> tensor<256x256xi64>
[2m[36m(pid=252851) [0m: 100%|█████████▉| 1.91k/1.92k [26:08<00:09, 1.39s/it]                                                                   [36m(BenchmarkWorker pid=252851)[0m     %81 = tt.broadcast %78 : tensor<1x256xi64> -> tensor<256x256xi64>
[2m[36m(pid=252851) [0m: 100%|█████████▉| 1.91k/1.92k [26:08<00:09, 1.39s/it]                                                                   [36m(BenchmarkWorker pid=252851)[0m     %82 = arith.addi %80, %81 : tensor<256x256xi64>
[2m[36m(pid=252851) [0m: 100%|█████████▉| 1.91k/1.92k [26:08<00:09, 1.39s/it]                                                                   [36m(BenchmarkWorker pid=252851)[0m     %83 = tt.splat %73 : !tt.ptr<bf16> -> tensor<256x256x!tt.ptr<bf16>>
[2m[36m(pid=252851) [0m: 100%|█████████▉| 1.91k/1.92k [26:08<00:09, 1.39s/it]                                                                   [36m(BenchmarkWorker pid=252851)[0m     %84 = tt.addptr %83, %82 : tensor<256x256x!tt.ptr<bf16>>, tensor<256x256xi64>
[2m[36m(pid=252851) [0m: 100%|█████████▉| 1.91k/1.92k [26:08<00:09, 1.39s/it]                                                                   [36m(BenchmarkWorker pid=252851)[0m     %85:3 = scf.for %arg22 = %c0_i32 to %arg8 step %c256_i32 iter_args(%arg23 = %70, %arg24 = %84, %arg25 = %cst_1) -> (tensor<256x256x!tt.ptr<bf16>>, tensor<256x256x!tt.ptr<bf16>>, tensor<256x256xf32>)  : i32 {
[2m[36m(pid=252851) [0m: 100%|█████████▉| 1.91k/1.92k [26:08<00:09, 1.39s/it]                                                                   [36m(BenchmarkWorker pid=252851)[0m       %104 = tt.expand_dims %28 {axis = 1 : i32} : tensor<256xi1> -> tensor<256x1xi1>
[2m[36m(pid=252851) [0m: 100%|█████████▉| 1.91k/1.92k [26:08<00:09, 1.39s/it]                                                                   [36m(BenchmarkWorker pid=252851)[0m       %105 = tt.broadcast %104 : tensor<256x1xi1> -> tensor<256x256xi1>
[2m[36m(pid=252851) [0m: 100%|█████████▉| 1.91k/1.92k [26:08<00:09, 1.39s/it]                                                                   [36m(BenchmarkWorker pid=252851)[0m       %106 = tt.load %arg23, %105, %cst : tensor<256x256x!tt.ptr<bf16>>
[2m[36m(pid=252851) [0m: 100%|█████████▉| 1.91k/1.92k [26:08<00:09, 1.39s/it]                                                                   [36m(BenchmarkWorker pid=252851)[0m       %107 = tt.load %arg24 : tensor<256x256x!tt.ptr<bf16>>
[2m[36m(pid=252851) [0m: 100%|█████████▉| 1.91k/1.92k [26:08<00:09, 1.39s/it]                                                                   [36m(BenchmarkWorker pid=252851)[0m       %108 = tt.dot %106, %107, %arg25, inputPrecision = tf32 : tensor<256x256xbf16> * tensor<256x256xbf16> -> tensor<256x256xf32>
[2m[36m(pid=252851) [0m: 100%|█████████▉| 1.91k/1.92k [26:08<00:09, 1.39s/it]                                                                   [36m(BenchmarkWorker pid=252851)[0m       %109 = tt.addptr %arg23, %cst_0 : tensor<256x256x!tt.ptr<bf16>>, tensor<256x256xi32>
[2m[36m(pid=252851) [0m: 100%|█████████▉| 1.91k/1.92k [26:08<00:09, 1.39s/it]                                                                   [36m(BenchmarkWorker pid=252851)[0m       %110 = tt.addptr %arg24, %cst_0 : tensor<256x256x!tt.ptr<bf16>>, tensor<256x256xi32>
[2m[36m(pid=252851) [0m: 100%|█████████▉| 1.91k/1.92k [26:08<00:09, 1.39s/it]                                                                   [36m(BenchmarkWorker pid=252851)[0m       scf.yield %109, %110, %108 : tensor<256x256x!tt.ptr<bf16>>, tensor<256x256x!tt.ptr<bf16>>, tensor<256x256xf32>
[2m[36m(pid=252851) [0m: 100%|█████████▉| 1.91k/1.92k [26:08<00:09, 1.39s/it]                                                                   [36m(BenchmarkWorker pid=252851)[0m     }
[2m[36m(pid=252851) [0m: 100%|█████████▉| 1.91k/1.92k [26:08<00:09, 1.39s/it]                                                                   [36m(BenchmarkWorker pid=252851)[0m     %86 = arith.truncf %85#2 : tensor<256x256xf32> to tensor<256x256xbf16>
[2m[36m(pid=252851) [0m: 100%|█████████▉| 1.91k/1.92k [26:08<00:09, 1.39s/it]                                                                   [36m(BenchmarkWorker pid=252851)[0m     %87 = tt.splat %52 : i32 -> tensor<256xi32>
[2m[36m(pid=252851) [0m: 100%|█████████▉| 1.91k/1.92k [26:08<00:09, 1.39s/it]                                                                   [36m(BenchmarkWorker pid=252851)[0m     %88 = arith.addi %87, %17 : tensor<256xi32>
[2m[36m(pid=252851) [0m: 100%|█████████▉| 1.91k/1.92k [26:08<00:09, 1.39s/it]                                                                   [36m(BenchmarkWorker pid=252851)[0m     %89 = arith.extsi %arg16 : i32 to i64
[2m[36m(pid=252851) [0m: 100%|█████████▉| 1.91k/1.92k [26:08<00:09, 1.39s/it]                                                                   [36m(BenchmarkWorker pid=252851)[0m     %90 = tt.splat %89 : i64 -> tensor<256x1xi64>
[2m[36m(pid=252851) [0m: 100%|█████████▉| 1.91k/1.92k [26:08<00:09, 1.39s/it]                                                                   [36m(BenchmarkWorker pid=252851)[0m     %91 = arith.muli %90, %59 : tensor<256x1xi64>
[2m[36m(pid=252851) [0m: 100%|█████████▉| 1.91k/1.92k [26:08<00:09, 1.39s/it]                                                                   [36m(BenchmarkWorker pid=252851)[0m     %92 = tt.splat %arg2 : !tt.ptr<bf16> -> tensor<256x1x!tt.ptr<bf16>>
[2m[36m(pid=252851) [0m: 100%|█████████▉| 1.91k/1.92k [26:08<00:09, 1.39s/it]                                                                   [36m(BenchmarkWorker pid=252851)[0m     %93 = tt.addptr %92, %91 : tensor<256x1x!tt.ptr<bf16>>, tensor<256x1xi64>
[2m[36m(pid=252851) [0m: 100%|█████████▉| 1.91k/1.92k [26:08<00:09, 1.39s/it]                                                                   [36m(BenchmarkWorker pid=252851)[0m     %94 = tt.expand_dims %88 {axis = 0 : i32} : tensor<256xi32> -> tensor<1x256xi32>
[2m[36m(pid=252851) [0m: 100%|█████████▉| 1.91k/1.92k [26:08<00:09, 1.39s/it]                                                                   [36m(BenchmarkWorker pid=252851)[0m     %95 = tt.broadcast %93 : tensor<256x1x!tt.ptr<bf16>> -> tensor<256x256x!tt.ptr<bf16>>
[2m[36m(pid=252851) [0m: 100%|█████████▉| 1.91k/1.92k [26:08<00:09, 1.39s/it]                                                                   [36m(BenchmarkWorker pid=252851)[0m     %96 = tt.broadcast %94 : tensor<1x256xi32> -> tensor<256x256xi32>
[2m[36m(pid=252851) [0m: 100%|█████████▉| 1.91k/1.92k [26:08<00:09, 1.39s/it]                                                                   [36m(BenchmarkWorker pid=252851)[0m     %97 = tt.addptr %95, %96 : tensor<256x256x!tt.ptr<bf16>>, tensor<256x256xi32>
[2m[36m(pid=252851) [0m: 100%|█████████▉| 1.91k/1.92k [26:08<00:09, 1.39s/it]                                                                   [36m(BenchmarkWorker pid=252851)[0m     %98 = tt.expand_dims %28 {axis = 1 : i32} : tensor<256xi1> -> tensor<256x1xi1>
[2m[36m(pid=252851) [0m: 100%|█████████▉| 1.91k/1.92k [26:08<00:09, 1.39s/it]                                                                   [36m(BenchmarkWorker pid=252851)[0m     %99 = tt.splat %arg7 : i32 -> tensor<1x256xi32>
[2m[36m(pid=252851) [0m: 100%|█████████▉| 1.91k/1.92k [26:08<00:09, 1.39s/it]                                                                   [36m(BenchmarkWorker pid=252851)[0m     %100 = arith.cmpi slt, %94, %99 : tensor<1x256xi32>
[2m[36m(pid=252851) [0m: 100%|█████████▉| 1.91k/1.92k [26:08<00:09, 1.39s/it]                                                                   [36m(BenchmarkWorker pid=252851)[0m     %101 = tt.broadcast %98 : tensor<256x1xi1> -> tensor<256x256xi1>
[2m[36m(pid=252851) [0m: 100%|█████████▉| 1.91k/1.92k [26:08<00:09, 1.39s/it]                                                                   [36m(BenchmarkWorker pid=252851)[0m     %102 = tt.broadcast %100 : tensor<1x256xi1> -> tensor<256x256xi1>
[2m[36m(pid=252851) [0m: 100%|█████████▉| 1.91k/1.92k [26:08<00:09, 1.39s/it]                                                                   [36m(BenchmarkWorker pid=252851)[0m     %103 = arith.andi %101, %102 : tensor<256x256xi1>
[2m[36m(pid=252851) [0m: 100%|█████████▉| 1.91k/1.92k [26:08<00:09, 1.39s/it]                                                                   [36m(BenchmarkWorker pid=252851)[0m     tt.store %97, %86, %103 : tensor<256x256x!tt.ptr<bf16>>
[2m[36m(pid=252851) [0m: 100%|█████████▉| 1.91k/1.92k [26:08<00:09, 1.39s/it]                                                                   [36m(BenchmarkWorker pid=252851)[0m     tt.return
[2m[36m(pid=252851) [0m: 100%|█████████▉| 1.91k/1.92k [26:08<00:09, 1.39s/it]                                                                   [36m(BenchmarkWorker pid=252851)[0m   }
[2m[36m(pid=252851) [0m: 100%|█████████▉| 1.91k/1.92k [26:08<00:09, 1.39s/it]                                                                   [36m(BenchmarkWorker pid=252851)[0m }
[2m[36m(pid=252851) [0m: 100%|█████████▉| 1.91k/1.92k [26:08<00:09, 1.39s/it]                                                                   [36m(BenchmarkWorker pid=252851)[0m 
[2m[36m(pid=252851) [0m: 100%|█████████▉| 1.91k/1.92k [26:08<00:09, 1.39s/it]                                                                   [36m(BenchmarkWorker pid=252851)[0m {-#
[2m[36m(pid=252851) [0m: 100%|█████████▉| 1.91k/1.92k [26:08<00:09, 1.39s/it]                                                                   [36m(BenchmarkWorker pid=252851)[0m   external_resources: {
[2m[36m(pid=252851) [0m: 100%|█████████▉| 1.91k/1.92k [26:08<00:09, 1.39s/it]                                                                   [36m(BenchmarkWorker pid=252851)[0m     mlir_reproducer: {
[2m[36m(pid=252851) [0m: 100%|█████████▉| 1.91k/1.92k [26:08<00:09, 1.39s/it]                                                                   [36m(BenchmarkWorker pid=252851)[0m       pipeline: "builtin.module(convert-triton-to-tritongpu{enable-source-remat=false num-ctas=1 num-warps=4 target=cuda:90 threads-per-warp=32}, tritongpu-coalesce, tritongpu-F32DotTC, triton-nvidia-gpu-plan-cta, tritongpu-remove-layout-conversions, tritongpu-optimize-thread-locality, tritongpu-accelerate-matmul, tritongpu-remove-layout-conversions, tritongpu-optimize-dot-operands{hoist-layout-conversion=true}, triton-nvidia-optimize-descriptor-encoding, triton-loop-aware-cse, tritongpu-fuse-nested-loops, canonicalize{  max-iterations=10 max-num-rewrites=-1 region-simplify=normal test-convergence=false top-down=true}, triton-licm, canonicalize{  max-iterations=10 max-num-rewrites=-1 region-simplify=normal test-convergence=false top-down=true}, tritongpu-combine-tensor-select-and-if, nvgpu-warp-specialization{dump-intermediate-steps=false num-stages=5}, tritongpu-assign-latencies{num-stages=5}, tritongpu-schedule-loops, tritongpu-pipeline{dump-intermediate-steps=false num-stages=5}, canonicalize{  max-iterations=10 max-num-rewrites=-1 region-simplify=normal test-convergence=false top-down=true}, triton-loop-aware-cse, tritongpu-prefetch, tritongpu-optimize-dot-operands{hoist-layout-conversion=true}, tritongpu-coalesce-async-copy, triton-nvidia-optimize-tmem-layouts, tritongpu-remove-layout-conversions, triton-nvidia-interleave-tmem, tritongpu-reduce-data-duplication, tritongpu-reorder-instructions, triton-loop-aware-cse, symbol-dce, triton-nvidia-tma-lowering, triton-nvidia-gpu-fence-insertion{compute-capability=90}, triton-nvidia-mma-lowering, sccp, cse, canonicalize{  max-iterations=10 max-num-rewrites=-1 region-simplify=normal test-convergence=false top-down=true})",
[2m[36m(pid=252851) [0m: 100%|█████████▉| 1.91k/1.92k [26:08<00:09, 1.39s/it]                                                                   [36m(BenchmarkWorker pid=252851)[0m       disable_threading: false,
[2m[36m(pid=252851) [0m: 100%|█████████▉| 1.91k/1.92k [26:08<00:09, 1.39s/it]                                                                   [36m(BenchmarkWorker pid=252851)[0m       verify_each: true
[2m[36m(pid=252851) [0m: 100%|█████████▉| 1.91k/1.92k [26:08<00:09, 1.39s/it]                                                                   [36m(BenchmarkWorker pid=252851)[0m     }
[2m[36m(pid=252851) [0m: 100%|█████████▉| 1.91k/1.92k [26:08<00:09, 1.39s/it]                                                                   [36m(BenchmarkWorker pid=252851)[0m   }
[2m[36m(pid=252851) [0m: 100%|█████████▉| 1.91k/1.92k [26:08<00:09, 1.39s/it]                                                                   [36m(BenchmarkWorker pid=252851)[0m #-}
[2m[36m(pid=252851) [0m: 100%|█████████▉| 1.91k/1.92k [26:08<00:09, 1.39s/it]                                                                   [36m(BenchmarkWorker pid=252851)[0m /home/t-jialianggu/work/sglang/python/sglang/srt/layers/moe/fused_moe_triton/fused_moe_triton_kernels.py:324:0: error: Failures have been detected while processing an MLIR pass pipeline
[2m[36m(pid=252851) [0m: 100%|█████████▉| 1.91k/1.92k [26:08<00:09, 1.39s/it]                                                                   [36m(BenchmarkWorker pid=252851)[0m /home/t-jialianggu/work/sglang/python/sglang/srt/layers/moe/fused_moe_triton/fused_moe_triton_kernels.py:324:0: note: Pipeline failed while executing [`TritonGPURemoveLayoutConversions` on 'builtin.module' operation]: reproducer generated at `std::errs, please share the reproducer above with Triton project.`
[2m[36m(pid=252851) [0m: 100%|█████████▉| 1.91k/1.92k [26:08<00:09, 1.39s/it][2m[36m(pid=252851) [0m: 100%|█████████▉| 1.92k/1.92k [26:11<00:01, 1.26it/s][2m[36m(pid=252851) [0m: 100%|█████████▉| 1.92k/1.92k [26:11<00:01, 1.26it/s][2m[36m(pid=252851) [0m: 100%|█████████▉| 1.92k/1.92k [26:13<00:01, 1.04s/it][2m[36m(pid=252851) [0m: 100%|█████████▉| 1.92k/1.92k [26:13<00:01, 1.04s/it][2m[36m(pid=252851) [0m: 100%|██████████| 1.92k/1.92k [26:15<00:00, 1.29s/it][2m[36m(pid=252851) [0m: 100%|██████████| 1.92k/1.92k [26:15<00:00, 1.29s/it]                                                                   [2m[36m(pid=252851) [0m: 100%|██████████| 1.92k/1.92k [26:18<00:00, 1.29s/it]                                                                   [2m[36m(pid=252851) [0m: 100%|██████████| 1.92k/1.92k [26:18<00:00, 1.29s/it]Writing best config to E=128,N=768,device_name=NVIDIA_H200.json...
Tuning took 1584.20 seconds
                                                                   [2m[36m(pid=252851) [0m: 100%|██████████| 1.92k/1.92k [26:18<00:00, 1.29s/it][36m(BenchmarkWorker pid=252851)[0m Thu Jun  4 18:20:21 2026] Completed tuning for batch_size=32
[2m[36m(pid=252851) [0m: 100%|██████████| 1.92k/1.92k [26:20<00:00, 1.21it/s]
